best_model_tsebg_etth2.pt (torch, 965406 bytes, 79 tensors)

TCNnetwork.0.conv1.bias f4 [32]
000000 0c 4e 43 be 99 97 31 3e e8 7d f4 bd 2e 05 fe 3d
       -0.19072741 0.17342986 -0.11938077 0.12403332
000010 f2 bc 3e 3c 25 8e 17 3e ee ab 1e be b3 93 ca ba
       0.011641728 0.14800318 -0.15495273 -0.0015455395
000020 44 2c bc 3d 66 0f a3 3d 57 b9 d2 bd a8 79 06 be
       0.091881305 0.079619214 -0.10289257 -0.13132346
000030 bb ad 0c bd 90 16 c5 3d 27 8a 31 be 29 89 25 be
       -0.03434537 0.09623444 -0.17337857 -0.16165604
000040 1d 40 4b 3d 0e 15 01 3e e7 b1 54 3d 56 89 97 bb
       0.04962169 0.12605688 0.051927473 -0.004624526
000050 87 b9 0b 3e e2 b3 ee 3d a8 aa fb bc df f1 7c 3d
       0.13644992 0.11655404 -0.030721024 0.061754104
000060 c5 b4 92 bd f9 1a 0b bd b4 d1 30 bc bf f3 e2 3d
       -0.07163385 -0.03396127 -0.010792185 0.11081647
000070 8b e3 c1 3c 64 58 91 bd a5 6a 11 3e 1d 2c 4b 3d
       0.023668071 -0.07096937 0.14200838 0.049602617

TCNnetwork.0.conv1.parametrizations.weight.original0 f4 [32, 1, 1]
000000 32 36 1d 3f b9 21 17 3f 08 9a dc 3e 72 03 1e 3f
       0.6141082 0.5903583 0.43086267 0.6172401
000010 9e 5c 18 3f af c8 0e 3f ae b0 17 3f 20 e2 21 3f
       0.5951632 0.5577497 0.59253967 0.63235664
000020 60 25 3a 3f 00 8d 0b 3f e4 a1 16 3f f5 fe 21 3f
       0.7271328 0.54512024 0.58840775 0.6327966
000030 ec 54 14 3f f0 c7 15 3f e6 40 26 3f 0c dd 22 3f
       0.5794208 0.58508205 0.6494278 0.6361854
000040 51 c9 20 3f d3 a1 17 3f 5f 95 13 3f c2 4c 1f 3f
       0.62807184 0.592313 0.576498 0.622265
000050 32 f3 0c 3f 66 cb 17 3f 96 fb cf 3e 54 03 26 3f
       0.55058587 0.59294736 0.40621632 0.6484883
000060 4a 81 01 3f 1e 8e 1b 3f 9e 24 23 3f 59 a0 35 3f
       0.50587904 0.6076373 0.6372775 0.70947796
000070 a9 f0 27 3f c8 38 ff 3e 0c 4e 0d 3f c2 7e 0b 3f
       0.65601593 0.49848008 0.55197215 0.5449029

TCNnetwork.0.conv1.parametrizations.weight.original1 f4 [32, 7, 3]
000000 31 cd 32 be 71 d8 02 3e 43 f3 db bd e7 99 b9 bc
       -0.17461087 0.12777878 -0.10739758 -0.022656394
000010 02 49 69 3d 26 3f b7 3d 22 80 e2 bd 5e 34 45 be
       0.05695439 0.089475915 -0.11059596 -0.19258258
000020 66 69 00 be 4f bf 36 be 1a f1 37 be f0 40 b3 3d
       -0.12540206 -0.17846416 -0.17963067 0.0875262
000030 2b 3e e9 3d bd 7b 14 3e ae 48 63 bc af de 01 3e
       0.11388811 0.14500327 -0.013872309 0.12682603
000040 83 f7 33 3e 73 3a a8 3d 57 01 1c be 4d 3d ee bd
       0.17574887 0.08214273 -0.15234886 -0.11632786
000050 7e a8 30 be 52 71 0c 3e c5 28 9c 3c 6c e2 50 3e
       -0.17251775 0.13715103 0.01906241 0.20398873
000060 e7 c0 de bc 83 dd 46 3e 50 5d d0 3d b3 77 36 bb
       -0.027191592 0.19420438 0.10174048 -0.0027842342
000070 8b 9b e7 bd a7 92 b8 3d c6 5c 3e 3c 4c 4c e6 bd
       -0.11308964 0.09012347 0.011618799 -0.11245021
000080 1e 97 fd 3d f7 cc 29 bd 9b c1 60 be 20 cc 04 be
       0.12382339 -0.041455235 -0.21948855 -0.12968493
000090 af 42 3b 3e cd bd 99 3d d0 eb 2b be 1b ab 2f 3e
       0.18287157 0.07506905 -0.16789174 0.17155115
0000a0 d5 ce 07 3c 32 ca 4e be 6b d4 70 3d 59 6d 7d bd
       0.008289059 -0.20194319 0.058796328 -0.06187186
0000b0 a8 70 8a bd f5 a5 27 bb 83 a6 54 be 86 b2 ef bb
       -0.06759769 -0.0025581096 -0.20766644 -0.007314983
0000c0 84 77 05 3e 49 cc e0 3b 19 0a 51 bd 16 6c 9f 3d
       0.13033873 0.00686029 -0.05103502 0.07784288
0000d0 d9 f0 2b bd 9e 7a c4 bd 38 de cf 3d 5b ac 9a 3d
       -0.041977737 -0.095937 0.10149807 0.075524054
0000e0 d0 46 09 3e 19 c8 3f bd 8c fa 33 3e 70 40 1b 3e
       0.13405919 -0.046821687 0.17576045 0.151613
0000f0 13 b3 0d be d3 2f fd 3c b9 75 91 bc 78 df 13 3e
       -0.13837843 0.030906593 -0.01775633 0.14440715
000100 ef 89 11 3e 2c 3d 96 3d b3 9c 0b 3e 9e 13 6b 3d
       0.14212774 0.07335886 0.13633995 0.057391755
000110 1e 09 95 bd 17 41 0f be c3 76 52 3e 54 58 b8 3d
       -0.072771296 -0.13989674 0.20553117 0.09001222
000120 d6 60 2b be 33 d1 9c 3d 2e b8 82 bd 99 29 5d be
       -0.16736159 0.07657089 -0.06382786 -0.215979
000130 03 0a 4f 3e 8a 72 04 3c 8a f9 7a 3d 14 07 be bc
       0.20218663 0.008083949 0.061273135 -0.023196734
000140 4c 04 53 be a5 fb 6a 3e 7f 64 82 bd 7b c9 52 be
       -0.20607108 0.22947557 -0.06366824 -0.20584671
000150 6d 2a 46 3e d0 a7 be bd d2 41 e8 bd a4 ce 36 3e
       0.19352122 -0.093093514 -0.11340679 0.17852265
000160 2b 19 f2 3d f4 4d 14 be 22 1e 3d bd 5c 30 0a be
       0.11821207 -0.14482862 -0.046171315 -0.1349501
000170 0b db 1e 3e f4 0b 53 be 58 55 15 be 98 76 bb bd
       0.15513246 -0.20610029 -0.14583337 -0.09153479
000180 f3 34 b9 bd 50 53 68 3e dd fb 9e bd d6 1a 21 bd
       -0.090433024 0.22688031 -0.07762883 -0.039332233
000190 14 dc 4b 3d 7e 04 cb bc 86 80 42 bc 00 83 72 bd
       0.04977043 -0.024782415 -0.011871463 -0.059206963
0001a0 ec 28 71 be 09 e9 41 3e 86 36 9e bd ed 1c 84 3d
       -0.23550767 0.18936552 -0.07725243 0.0645083
0001b0 34 0e 24 3e dd 28 ae 3d 5f 04 2c be 15 62 a7 3b
       0.16021043 0.08503888 -0.16798542 0.005108128
0001c0 9c bd 4e 3d 2b 22 ed 3d 60 05 3b 3e 75 bc 58 3e
       0.050473794 0.11578783 0.18263769 0.2116564
0001d0 25 15 9a 3c 39 25 41 3e f9 9d 50 bd 1e 1d e6 bd
       0.01880891 0.18861856 -0.050931904 -0.112360224
0001e0 d5 05 c0 bd d4 e1 44 3e f7 61 cc 3d f1 f5 c5 3d
       -0.09376112 0.19226772 0.09979623 0.0966605
0001f0 aa 36 9e bd b0 45 bb bd d4 db 3c bc d1 46 96 3c
       -0.0772527 -0.09144151 -0.0115270205 0.018344315
000200 b1 28 4d be b6 b4 45 3e 46 1d a4 bd 51 09 45 bd
       -0.20035054 0.19307217 -0.08013396 -0.048104588
000210 9a 40 17 be de b9 cb 3b 95 ce f0 bd 2d 95 52 3e
       -0.14770737 0.0062172255 -0.117581524 0.20564719
000220 a2 b2 61 3e 53 82 6a 3d ad 7a a7 bd 08 b8 44 3e
       0.220408 0.057253193 -0.081776954 0.19210827
000230 1c ad 1c 3e 1a cf 56 3e 79 11 21 be 85 5a c4 ba
       0.15300411 0.2097744 -0.15729322 -0.001498059
000240 20 df 06 3c 54 2f 8f bc 82 96 55 3c 4e fd ac 3c
       0.008231908 -0.017478622 0.013036372 0.021116879
000250 64 f1 4f 3e 15 b0 59 be 9c 5c 19 be 75 93 8d 3c
       0.20306927 -0.21258576 -0.14976734 0.017282227
000260 17 f4 b7 bd 71 79 b9 bc 4c e5 1f be 67 7a 4e be
       -0.08982103 -0.022640916 -0.15614814 -0.2016388
000270 04 8b 96 3d f8 a2 59 bc 37 b1 eb 3d 79 37 1a 3e
       0.07350734 -0.013283484 0.115084104 0.15060224
000280 70 69 ab bd b1 60 14 3e cc 06 43 3d cf 1b 95 bd
       -0.0836972 0.1449001 0.047613904 -0.07280695
000290 e0 a5 1e be d6 72 bf b8 f3 1b 8d 3e 9d 87 d4 bc
       -0.15492964 -9.1289796e-05 0.27560386 -0.025943572
0002a0 39 a3 1a be ee 8c 09 be 0a df 31 3e d2 6a ed 3d
       -0.15101327 -0.13432667 0.17370239 0.1159264
0002b0 83 07 b6 bd 9b 2e 82 3e 9f a4 39 be 33 51 63 be
       -0.088881515 0.25426182 -0.18129204 -0.22198944
0002c0 49 18 2f be 1d fb 1d 3e 49 c9 e6 bc f9 7e 0a bd
       -0.17099108 0.15427823 -0.028172152 -0.033812497
0002d0 54 4c 55 bd c8 85 e6 bd f3 be 67 3e 06 d0 48 3c
       -0.052074745 -0.112559855 0.22631435 0.012256628
0002e0 9e f1 34 bd 4d b0 55 3e ef 4d 01 be 28 c1 4d bc
       -0.044175737 0.20868035 -0.12627386 -0.012558259
0002f0 ee a4 84 3e 86 10 12 be 67 0e b0 3d 11 01 0e be
       0.2590708 -0.14264116 0.08596497 -0.13867594
000300 86 f9 37 be d5 84 aa bd 53 92 21 be 6d d0 59 bc
       -0.1796628 -0.08326117 -0.15778475 -0.0132943215
000310 06 4a 8a bd d2 60 3c bd 7d f9 10 bd 99 cb 7b bd
       -0.067524 -0.045990773 -0.03539418 -0.061473463
000320 6a d8 9c bd 94 fc dc bd b8 4d 88 bd 25 fe 2d be
       -0.07658465 -0.10790363 -0.06655449 -0.1699148
000330 2b a9 1a be 0d 71 11 3e a8 60 58 be 5a 1f 5b 3e
       -0.15103595 0.14203282 -0.21130621 0.21398678
000340 33 6c c8 3d 03 5c 08 3c ec ca 39 be a6 1a 14 3d
       0.09786262 0.008322719 -0.18143815 0.036158226
000350 bf be 2e be eb 1b 2c 3e 45 a5 c4 3c b4 29 23 be
       -0.17064951 0.16807525 0.024004588 -0.15933877
000360 4e 85 78 3e 52 a4 7b 3d 58 7d d6 3d dc 31 26 3c
       0.24269602 0.061436005 0.10473126 0.010143723
000370 e6 01 5a 3e e7 8d a3 bd 8b f2 10 be b4 2f ed 3d
       0.21289787 -0.0798605 -0.14155023 0.11581364
000380 6b e0 1f bd e8 bc 60 3c bc 30 49 be f2 12 8f 3d
       -0.03903238 0.013716914 -0.19647497 0.069860354
000390 c2 0b 3c be 6c 56 03 3c 0c 49 7a bd b9 67 3c be
       -0.1836386 0.00801621 -0.06110482 -0.18398942
0003a0 b0 4c 93 3d 70 12 33 bd 4a ef 38 3d a2 40 42 be
       0.07192361 -0.043718755 0.04515008 -0.18969968
0003b0 bd 8a 3a 3e a5 30 65 be 96 f2 0b be 6c 4b 19 be
       0.18216987 -0.22381838 -0.13666758 -0.14970177
0003c0 de 6b 40 be a6 4d 2e 3d d9 03 ca bd 80 45 dc 3d
       -0.18791148 0.04255452 -0.09864015 0.107554436
0003d0 58 e4 a1 3d 77 ce 5e 3e b1 77 68 bd bd 00 85 bd
       0.07904881 0.21758448 -0.05675477 -0.064942814
0003e0 41 95 42 be 5d 68 68 bd a1 a6 4e 3e 9c 46 2c be
       -0.19002248 -0.056740154 0.20180751 -0.1682381
0003f0 cf 68 0c be 42 26 23 3e d9 96 ef 3d f7 ca 2f 3e
       -0.13711856 0.15932563 0.11698694 0.17167269

TCNnetwork.0.conv2.bias f4 [32]
000000 38 e2 2a 3d 81 8f 4f 3d d4 53 9c 3c 05 94 ad bd
       0.041719645 0.050673965 0.019082941 -0.08475498
000010 da 64 13 3d 7b 42 e2 bb 02 5c 9b 3c a9 71 b8 3d
       0.03598485 -0.0069048977 0.018964771 0.09006054
000020 8e 02 0d bd 86 d6 35 3c 41 d7 01 3d 4b 0d d1 bd
       -0.034426264 0.01109851 0.031699423 -0.102076136
000030 f2 77 aa bd ba 4d 34 bd f5 81 72 bd 1e 65 58 bd
       -0.08323659 -0.04401944 -0.059205968 -0.052830808
000040 9f fc b6 3d af a1 88 3d 14 8f bc bd 2a c0 79 3c
       0.089349024 0.06671464 -0.092069775 0.015243569
000050 23 13 34 bd 32 0b 14 3b b9 5c 11 3d 2b b9 6f 3d
       -0.043963563 0.002258968 0.035488818 0.0585262
000060 a9 65 3b bc a1 56 54 bd f4 2c 2f 3d 96 a7 ef 3c
       -0.011437812 -0.05184043 0.04276748 0.029254716
000070 af 8c d0 bd 74 04 fc bc bb c6 82 3a 99 c6 76 bb
       -0.10183083 -0.030763842 0.0009977439 -0.0037654995

TCNnetwork.0.conv2.parametrizations.weight.original0 f4 [32, 1, 1]
000000 04 46 10 3f ed 8f 07 3f 32 5a 0e 3f a6 f3 04 3f
       0.56356835 0.5295399 0.5560638 0.5193428
000010 f8 e9 0a 3f 15 63 12 3f 93 25 09 3f ef 27 10 3f
       0.5426326 0.5718244 0.5357296 0.56310934
000020 25 89 1b 3f d4 4f 20 3f 12 05 21 3f 4c ca 06 3f
       0.6075614 0.6262181 0.6289836 0.5265243
000030 a6 d2 0e 3f 6c 92 1b 3f 34 39 19 3f a7 45 1f 3f
       0.55790174 0.607703 0.5985291 0.62215656
000040 51 b7 0a 3f 3e de 1b 3f 89 0d 11 3f 5d b6 0f 3f
       0.5418597 0.6088599 0.5666128 0.5613764
000050 d8 17 10 3f 06 e3 18 3f f0 d3 1f 3f d0 5a 12 3f
       0.5628638 0.5972141 0.62432766 0.5716982
000060 9f a6 08 3f 6b 56 04 3f f9 93 23 3f 1e e7 1c 3f
       0.53379244 0.51694363 0.63897663 0.61290157
000070 34 03 0f 3f 6c 3e 21 3f 5f 75 14 3f a6 27 14 3f
       0.5586426 0.62985873 0.57991594 0.57873

TCNnetwork.0.conv2.parametrizations.weight.original1 f4 [32, 32, 3]
000000 ba 7b cd bd af b6 60 bd ff fe 8b bd 6c 91 e9 bd
       -0.100333646 -0.05486172 -0.06835746 -0.1140469
000010 74 6a 23 bd 25 2d ef bc be de 09 bd cf a0 a5 bd
       -0.039896443 -0.029196331 -0.03365969 -0.080873124
000020 d7 63 72 bd e4 86 42 bd 70 96 ad bd 46 99 c1 3d
       -0.059177246 -0.047491923 -0.08475959 0.09453063
000030 e6 b7 93 3d 7a fc 63 3d 68 0d ac bd a9 45 bc bd
       0.0721281 0.055660702 -0.084009945 -0.09192974
000040 0e 98 c3 bc be a7 5c bd bb 29 92 bd f8 a7 d6 3d
       -0.023876216 -0.05387091 -0.07136866 0.10481256
000050 5f 73 bc 3d 0a 36 83 bc 97 04 03 bd d7 07 8c 3d
       0.09201693 -0.016016979 -0.0319868 0.06837433
000060 75 31 63 bd 2d bf e3 bd ef f4 12 3d 10 82 30 3d
       -0.055467088 -0.11120448 0.035878118 0.043092787
000070 2a 4c 89 3d 97 b4 68 3d b9 73 51 3a ad 87 5f 3d
       0.0670398 0.05681285 0.00079899613 0.05457275
000080 a0 da bf 3a e1 3c c4 3c 84 98 4e 3d 98 4c 84 bd
       0.0014637299 0.02395481 0.05043842 -0.064599216
000090 db 81 33 3d fa 3a f0 3c 11 47 e1 39 ed 27 d2 bc
       0.04382501 0.029324997 0.00042968293 -0.025653804
0000a0 29 29 e4 bd fb 4e b3 3c 8c f6 87 bd c3 f6 f1 bc
       -0.11140663 0.021888247 -0.06638822 -0.02953661
0000b0 88 da 9b 3d b0 c4 54 bb 9b 8f 13 3d 69 b1 ba 3d
       0.07610041 -0.0032465868 0.036025625 0.091158696
0000c0 49 f3 13 bd b7 5d b8 bd 65 e8 6e bc 3e 31 5a 3d
       -0.036120687 -0.0900225 -0.014581774 0.053269617
0000d0 ec 29 e9 bd a8 d6 eb 3c 07 8f 65 3d 45 a1 af bd
       -0.11384949 0.02878888 0.056044605 -0.085756816
0000e0 67 da 3b bc e0 f0 84 bd 2a ff 78 3d 9a e0 a5 3d
       -0.011465645 -0.06491256 0.06079022 0.0809948
0000f0 f3 6d dc bd 40 18 63 bd 3e cf 80 3d 8d 47 b1 bc
       -0.10763159 -0.05544305 0.06289528 -0.021640563
000100 4f 17 3c bd 36 79 93 bd 5b 85 21 bd 7e 8f 81 3d
       -0.045920666 -0.072008535 -0.03943382 0.06326197
000110 c6 96 24 3c da c9 82 bd 1a 12 72 bd fb 6d 8e bd
       0.010045713 -0.063861564 -0.059099294 -0.06954571
000120 04 4a 8a bd 61 dc 91 bd 15 93 67 3d a1 da 58 3a
       -0.067523986 -0.07122112 0.056536753 0.00082723243
000130 74 1f 1f bd d1 f8 d4 3d 25 a2 22 bd 68 08 10 bc
       -0.038848355 0.103990205 -0.039705414 -0.008791067
000140 65 3d ca bd ff 3f 5a bd fc 7e 94 3d c9 05 6c 3b
       -0.09874991 -0.053283688 0.07250783 0.003601419
000150 b3 7e 83 3d 6b 78 03 3e 22 33 e3 3d 46 da 65 bd
       0.0642065 0.12838905 0.11093737 -0.056116365
000160 11 85 19 bd b7 7d 8a 3d bb 64 8e bd 7a d6 4d bd
       -0.037480418 0.067622595 -0.069528066 -0.05025337
000170 2c 72 32 ba 89 d1 80 bc 0a 4f 1d bd 67 62 2f 3d
       -0.0006807174 -0.015724914 -0.038405456 0.042818453
000180 20 92 e5 bc e8 cf f9 bc f2 ab a6 bd 3d d8 cb bc
       -0.02802378 -0.030494645 -0.08138265 -0.024883384
000190 7c 1a 54 3d f6 6c 38 bd 30 2b ce bd 69 6f 02 3a
       0.05178307 -0.04502579 -0.10066831 0.0004975708
0001a0 72 88 13 bd 30 ee 7a 3d e2 48 24 bd 8a e0 a4 3d
       -0.036018796 0.06126231 -0.04010857 0.0805064
0001b0 d8 cd 05 bd 58 f9 8d bc d1 a7 da 3c 68 4a 9c 3d
       -0.03266701 -0.01733081 0.02669135 0.07631379
0001c0 e1 1e ac bc 26 02 87 3d 29 29 40 bd ce 0d 20 bd
       -0.021010818 0.06592207 -0.046914253 -0.039075665
0001d0 31 0d c4 3d 36 18 0a bd 13 ac 95 3d da b8 08 3d
       0.095728286 -0.033714496 0.07308211 0.033379413
0001e0 06 96 71 3c 7a 44 80 bd 0e 68 ba bd 9c fc 94 3c
       0.014745241 -0.06263061 -0.09101878 0.01818686
0001f0 0a de cd 3d a3 07 9c 3d 58 e6 32 bc 2d 8b 33 bd
       0.10052116 0.07618644 -0.010919176 -0.0438339
000200 55 dc 83 3c 2f 00 70 bc ae 14 3c bc b5 f0 ce bd
       0.016096273 -0.014648481 -0.01147954 -0.10104505
000210 2c c9 61 3d 9e ba b6 bc 53 25 1e 3b 36 a5 cd 3d
       0.055123493 -0.022305783 0.0024131134 0.10041277
000220 3c bd d8 3c 49 3d 94 bd 46 4a 0c bd 70 c8 d9 bb
       0.026457421 -0.07238252 -0.03425052 -0.0066462085
000230 e6 b6 eb bc 20 11 4c 3a 63 c0 b6 bc 56 0c d3 bd
       -0.028773736 0.0007784534 -0.022308534 -0.10305087
000240 83 f4 90 3b 85 1f 56 3c d9 bd f3 3d 3f a5 81 3d
       0.0044236793 0.013069038 0.11901445 0.06330346
000250 8a 07 c2 ba 12 72 1e bd 95 23 2e 3c 91 4e 48 bd
       -0.0014803272 -0.038683005 0.010628601 -0.04890305
000260 12 12 17 bd 75 50 36 3d ec f4 9e bd 35 19 cb bc
       -0.036882468 0.044510324 -0.07761559 -0.024792293
000270 6e dc 66 bc 10 e0 47 3c e4 d4 56 3d 3b 3f dd 3d
       -0.0140906405 0.012199417 0.052449122 0.10803076
000280 c7 93 aa 3b 8f e4 8a bd 7e f5 80 ba 3c 82 50 bd
       0.0052056047 -0.06781875 -0.0009838787 -0.05090545
000290 2d 12 69 3c 4c 0f 87 3c aa a2 81 bd 8a 76 aa 3d
       0.014225525 0.016486786 -0.06329854 0.08323391
0002a0 7c c2 68 bc df fe 58 bd e8 6d 1b 3d e2 6d 4f bc
       -0.014206525 -0.05297744 0.03794661 -0.012660475
0002b0 67 c0 b4 bd 23 36 53 bb af bd 15 3e 01 18 b7 3d
       -0.0882576 -0.0032228313 0.1462314 0.08940125
0002c0 1d fc 9d 3d f0 fb f9 bc 2c 85 95 3d b3 75 bc bd
       0.077141024 -0.030515641 0.07300791 -0.09202137
0002d0 f2 7b 99 3d c8 f3 e2 3c 9b 93 91 bd af c1 06 3d
       0.07494344 0.027704135 -0.07108232 0.032899555
0002e0 54 28 84 3c 91 2c 00 3d 20 2f 5b bd 20 f9 4e bd
       0.016132511 0.0312925 -0.05351174 -0.050530553
0002f0 fd ab 0d bb e6 f4 ee bc 06 51 68 3d ed a6 40 bd
       -0.0021617406 -0.029169511 0.056717895 -0.047034193
000300 f2 b5 4d 3d 97 af 95 bd 80 e2 95 bd f1 48 ab bd
       0.050222345 -0.07308882 -0.07318592 -0.08363522
000310 0e c3 88 bd 35 ea bf bd fd c8 e9 3d 56 50 f2 3d
       -0.06677829 -0.09370843 0.114152886 0.11831729
000320 01 12 03 3d eb 91 96 bd 86 f3 8c 3d 4a 26 24 bd
       0.03199959 -0.073520504 0.06882386 -0.040075578
000330 ed 60 ae bd 00 ed 95 bd 84 2a 05 be 1c 7a 71 bd
       -0.08514581 -0.07320595 -0.130045 -0.058954343
000340 a5 66 63 bd 69 b4 e0 bc 96 b4 4c 3d 14 08 bc 3c
       -0.05551781 -0.027429776 0.049976908 0.02295307
000350 8a 95 8d bd 5e 34 35 bd a6 40 b7 bd 5d 02 bc 3a
       -0.06913288 -0.044239394 -0.089478776 0.0014343966
000360 c4 d0 d8 bd 36 fa 91 bd a4 6a cb bd 21 1e 9a 3d
       -0.10586694 -0.07127802 -0.099324495 0.07525278
000370 20 a9 17 3d 54 79 33 bd 84 c5 86 3c f9 02 1d 3d
       0.037026525 -0.04381688 0.016451605 0.038332913
000380 d9 90 15 bc 7b 1e fd 3c 3c 4c 16 bd e8 b8 5a 3d
       -0.009128773 0.030898323 -0.036693797 0.053398997
000390 f5 95 48 bd 92 ba 81 bd 8d ac 11 3d 62 df 22 3d
       -0.048971135 -0.063344136 0.035564948 0.039763816
0003a0 0e 6a 1c 3c a9 db a6 3c 7c 76 08 3d a4 46 22 bb
       0.00954677 0.020368414 0.03331612 -0.0024761343
0003b0 07 bb e8 bd aa 08 aa bd d8 e7 9e bd 9e de ca 3d
       -0.11363798 -0.08302434 -0.077590644 0.09905742
0003c0 90 74 e5 bd 31 f1 74 bd 64 74 53 bc cf 7a 60 3d
       -0.11203873 -0.05980033 -0.012906168 0.05480462
0003d0 1d d4 da 3c ab 82 ab bc 17 fd a1 bd 8d 98 8f 3d
       0.026712472 -0.02093633 -0.07909601 0.070115186
0003e0 25 83 63 3d fd 5f be bd f5 cb 96 bd 60 da 5d 3d
       0.05554499 -0.09295652 -0.073631205 0.054163337
0003f0 68 a3 11 3d b8 59 aa 3d 3c 60 8a 3d 67 67 83 3c
       0.035556227 0.08317894 0.067566365 0.016040517

TCNnetwork.0.net.0.bias f4 [32]
000000 0c 4e 43 be 99 97 31 3e e8 7d f4 bd 2e 05 fe 3d
       -0.19072741 0.17342986 -0.11938077 0.12403332
000010 f2 bc 3e 3c 25 8e 17 3e ee ab 1e be b3 93 ca ba
       0.011641728 0.14800318 -0.15495273 -0.0015455395
000020 44 2c bc 3d 66 0f a3 3d 57 b9 d2 bd a8 79 06 be
       0.091881305 0.079619214 -0.10289257 -0.13132346
000030 bb ad 0c bd 90 16 c5 3d 27 8a 31 be 29 89 25 be
       -0.03434537 0.09623444 -0.17337857 -0.16165604
000040 1d 40 4b 3d 0e 15 01 3e e7 b1 54 3d 56 89 97 bb
       0.04962169 0.12605688 0.051927473 -0.004624526
000050 87 b9 0b 3e e2 b3 ee 3d a8 aa fb bc df f1 7c 3d
       0.13644992 0.11655404 -0.030721024 0.061754104
000060 c5 b4 92 bd f9 1a 0b bd b4 d1 30 bc bf f3 e2 3d
       -0.07163385 -0.03396127 -0.010792185 0.11081647
000070 8b e3 c1 3c 64 58 91 bd a5 6a 11 3e 1d 2c 4b 3d
       0.023668071 -0.07096937 0.14200838 0.049602617

TCNnetwork.0.net.0.parametrizations.weight.original0 f4 [32, 1, 1]
000000 32 36 1d 3f b9 21 17 3f 08 9a dc 3e 72 03 1e 3f
       0.6141082 0.5903583 0.43086267 0.6172401
000010 9e 5c 18 3f af c8 0e 3f ae b0 17 3f 20 e2 21 3f
       0.5951632 0.5577497 0.59253967 0.63235664
000020 60 25 3a 3f 00 8d 0b 3f e4 a1 16 3f f5 fe 21 3f
       0.7271328 0.54512024 0.58840775 0.6327966
000030 ec 54 14 3f f0 c7 15 3f e6 40 26 3f 0c dd 22 3f
       0.5794208 0.58508205 0.6494278 0.6361854
000040 51 c9 20 3f d3 a1 17 3f 5f 95 13 3f c2 4c 1f 3f
       0.62807184 0.592313 0.576498 0.622265
000050 32 f3 0c 3f 66 cb 17 3f 96 fb cf 3e 54 03 26 3f
       0.55058587 0.59294736 0.40621632 0.6484883
000060 4a 81 01 3f 1e 8e 1b 3f 9e 24 23 3f 59 a0 35 3f
       0.50587904 0.6076373 0.6372775 0.70947796
000070 a9 f0 27 3f c8 38 ff 3e 0c 4e 0d 3f c2 7e 0b 3f
       0.65601593 0.49848008 0.55197215 0.5449029

TCNnetwork.0.net.0.parametrizations.weight.original1 f4 [32, 7, 3]
000000 31 cd 32 be 71 d8 02 3e 43 f3 db bd e7 99 b9 bc
       -0.17461087 0.12777878 -0.10739758 -0.022656394
000010 02 49 69 3d 26 3f b7 3d 22 80 e2 bd 5e 34 45 be
       0.05695439 0.089475915 -0.11059596 -0.19258258
000020 66 69 00 be 4f bf 36 be 1a f1 37 be f0 40 b3 3d
       -0.12540206 -0.17846416 -0.17963067 0.0875262
000030 2b 3e e9 3d bd 7b 14 3e ae 48 63 bc af de 01 3e
       0.11388811 0.14500327 -0.013872309 0.12682603
000040 83 f7 33 3e 73 3a a8 3d 57 01 1c be 4d 3d ee bd
       0.17574887 0.08214273 -0.15234886 -0.11632786
000050 7e a8 30 be 52 71 0c 3e c5 28 9c 3c 6c e2 50 3e
       -0.17251775 0.13715103 0.01906241 0.20398873
000060 e7 c0 de bc 83 dd 46 3e 50 5d d0 3d b3 77 36 bb
       -0.027191592 0.19420438 0.10174048 -0.0027842342
000070 8b 9b e7 bd a7 92 b8 3d c6 5c 3e 3c 4c 4c e6 bd
       -0.11308964 0.09012347 0.011618799 -0.11245021
000080 1e 97 fd 3d f7 cc 29 bd 9b c1 60 be 20 cc 04 be
       0.12382339 -0.041455235 -0.21948855 -0.12968493
000090 af 42 3b 3e cd bd 99 3d d0 eb 2b be 1b ab 2f 3e
       0.18287157 0.07506905 -0.16789174 0.17155115
0000a0 d5 ce 07 3c 32 ca 4e be 6b d4 70 3d 59 6d 7d bd
       0.008289059 -0.20194319 0.058796328 -0.06187186
0000b0 a8 70 8a bd f5 a5 27 bb 83 a6 54 be 86 b2 ef bb
       -0.06759769 -0.0025581096 -0.20766644 -0.007314983
0000c0 84 77 05 3e 49 cc e0 3b 19 0a 51 bd 16 6c 9f 3d
       0.13033873 0.00686029 -0.05103502 0.07784288
0000d0 d9 f0 2b bd 9e 7a c4 bd 38 de cf 3d 5b ac 9a 3d
       -0.041977737 -0.095937 0.10149807 0.075524054
0000e0 d0 46 09 3e 19 c8 3f bd 8c fa 33 3e 70 40 1b 3e
       0.13405919 -0.046821687 0.17576045 0.151613
0000f0 13 b3 0d be d3 2f fd 3c b9 75 91 bc 78 df 13 3e
       -0.13837843 0.030906593 -0.01775633 0.14440715
000100 ef 89 11 3e 2c 3d 96 3d b3 9c 0b 3e 9e 13 6b 3d
       0.14212774 0.07335886 0.13633995 0.057391755
000110 1e 09 95 bd 17 41 0f be c3 76 52 3e 54 58 b8 3d
       -0.072771296 -0.13989674 0.20553117 0.09001222
000120 d6 60 2b be 33 d1 9c 3d 2e b8 82 bd 99 29 5d be
       -0.16736159 0.07657089 -0.06382786 -0.215979
000130 03 0a 4f 3e 8a 72 04 3c 8a f9 7a 3d 14 07 be bc
       0.20218663 0.008083949 0.061273135 -0.023196734
000140 4c 04 53 be a5 fb 6a 3e 7f 64 82 bd 7b c9 52 be
       -0.20607108 0.22947557 -0.06366824 -0.20584671
000150 6d 2a 46 3e d0 a7 be bd d2 41 e8 bd a4 ce 36 3e
       0.19352122 -0.093093514 -0.11340679 0.17852265
000160 2b 19 f2 3d f4 4d 14 be 22 1e 3d bd 5c 30 0a be
       0.11821207 -0.14482862 -0.046171315 -0.1349501
000170 0b db 1e 3e f4 0b 53 be 58 55 15 be 98 76 bb bd
       0.15513246 -0.20610029 -0.14583337 -0.09153479
000180 f3 34 b9 bd 50 53 68 3e dd fb 9e bd d6 1a 21 bd
       -0.090433024 0.22688031 -0.07762883 -0.039332233
000190 14 dc 4b 3d 7e 04 cb bc 86 80 42 bc 00 83 72 bd
       0.04977043 -0.024782415 -0.011871463 -0.059206963
0001a0 ec 28 71 be 09 e9 41 3e 86 36 9e bd ed 1c 84 3d
       -0.23550767 0.18936552 -0.07725243 0.0645083
0001b0 34 0e 24 3e dd 28 ae 3d 5f 04 2c be 15 62 a7 3b
       0.16021043 0.08503888 -0.16798542 0.005108128
0001c0 9c bd 4e 3d 2b 22 ed 3d 60 05 3b 3e 75 bc 58 3e
       0.050473794 0.11578783 0.18263769 0.2116564
0001d0 25 15 9a 3c 39 25 41 3e f9 9d 50 bd 1e 1d e6 bd
       0.01880891 0.18861856 -0.050931904 -0.112360224
0001e0 d5 05 c0 bd d4 e1 44 3e f7 61 cc 3d f1 f5 c5 3d
       -0.09376112 0.19226772 0.09979623 0.0966605
0001f0 aa 36 9e bd b0 45 bb bd d4 db 3c bc d1 46 96 3c
       -0.0772527 -0.09144151 -0.0115270205 0.018344315
000200 b1 28 4d be b6 b4 45 3e 46 1d a4 bd 51 09 45 bd
       -0.20035054 0.19307217 -0.08013396 -0.048104588
000210 9a 40 17 be de b9 cb 3b 95 ce f0 bd 2d 95 52 3e
       -0.14770737 0.0062172255 -0.117581524 0.20564719
000220 a2 b2 61 3e 53 82 6a 3d ad 7a a7 bd 08 b8 44 3e
       0.220408 0.057253193 -0.081776954 0.19210827
000230 1c ad 1c 3e 1a cf 56 3e 79 11 21 be 85 5a c4 ba
       0.15300411 0.2097744 -0.15729322 -0.001498059
000240 20 df 06 3c 54 2f 8f bc 82 96 55 3c 4e fd ac 3c
       0.008231908 -0.017478622 0.013036372 0.021116879
000250 64 f1 4f 3e 15 b0 59 be 9c 5c 19 be 75 93 8d 3c
       0.20306927 -0.21258576 -0.14976734 0.017282227
000260 17 f4 b7 bd 71 79 b9 bc 4c e5 1f be 67 7a 4e be
       -0.08982103 -0.022640916 -0.15614814 -0.2016388
000270 04 8b 96 3d f8 a2 59 bc 37 b1 eb 3d 79 37 1a 3e
       0.07350734 -0.013283484 0.115084104 0.15060224
000280 70 69 ab bd b1 60 14 3e cc 06 43 3d cf 1b 95 bd
       -0.0836972 0.1449001 0.047613904 -0.07280695
000290 e0 a5 1e be d6 72 bf b8 f3 1b 8d 3e 9d 87 d4 bc
       -0.15492964 -9.1289796e-05 0.27560386 -0.025943572
0002a0 39 a3 1a be ee 8c 09 be 0a df 31 3e d2 6a ed 3d
       -0.15101327 -0.13432667 0.17370239 0.1159264
0002b0 83 07 b6 bd 9b 2e 82 3e 9f a4 39 be 33 51 63 be
       -0.088881515 0.25426182 -0.18129204 -0.22198944
0002c0 49 18 2f be 1d fb 1d 3e 49 c9 e6 bc f9 7e 0a bd
       -0.17099108 0.15427823 -0.028172152 -0.033812497
0002d0 54 4c 55 bd c8 85 e6 bd f3 be 67 3e 06 d0 48 3c
       -0.052074745 -0.112559855 0.22631435 0.012256628
0002e0 9e f1 34 bd 4d b0 55 3e ef 4d 01 be 28 c1 4d bc
       -0.044175737 0.20868035 -0.12627386 -0.012558259
0002f0 ee a4 84 3e 86 10 12 be 67 0e b0 3d 11 01 0e be
       0.2590708 -0.14264116 0.08596497 -0.13867594
000300 86 f9 37 be d5 84 aa bd 53 92 21 be 6d d0 59 bc
       -0.1796628 -0.08326117 -0.15778475 -0.0132943215
000310 06 4a 8a bd d2 60 3c bd 7d f9 10 bd 99 cb 7b bd
       -0.067524 -0.045990773 -0.03539418 -0.061473463
000320 6a d8 9c bd 94 fc dc bd b8 4d 88 bd 25 fe 2d be
       -0.07658465 -0.10790363 -0.06655449 -0.1699148
000330 2b a9 1a be 0d 71 11 3e a8 60 58 be 5a 1f 5b 3e
       -0.15103595 0.14203282 -0.21130621 0.21398678
000340 33 6c c8 3d 03 5c 08 3c ec ca 39 be a6 1a 14 3d
       0.09786262 0.008322719 -0.18143815 0.036158226
000350 bf be 2e be eb 1b 2c 3e 45 a5 c4 3c b4 29 23 be
       -0.17064951 0.16807525 0.024004588 -0.15933877
000360 4e 85 78 3e 52 a4 7b 3d 58 7d d6 3d dc 31 26 3c
       0.24269602 0.061436005 0.10473126 0.010143723
000370 e6 01 5a 3e e7 8d a3 bd 8b f2 10 be b4 2f ed 3d
       0.21289787 -0.0798605 -0.14155023 0.11581364
000380 6b e0 1f bd e8 bc 60 3c bc 30 49 be f2 12 8f 3d
       -0.03903238 0.013716914 -0.19647497 0.069860354
000390 c2 0b 3c be 6c 56 03 3c 0c 49 7a bd b9 67 3c be
       -0.1836386 0.00801621 -0.06110482 -0.18398942
0003a0 b0 4c 93 3d 70 12 33 bd 4a ef 38 3d a2 40 42 be
       0.07192361 -0.043718755 0.04515008 -0.18969968
0003b0 bd 8a 3a 3e a5 30 65 be 96 f2 0b be 6c 4b 19 be
       0.18216987 -0.22381838 -0.13666758 -0.14970177
0003c0 de 6b 40 be a6 4d 2e 3d d9 03 ca bd 80 45 dc 3d
       -0.18791148 0.04255452 -0.09864015 0.107554436
0003d0 58 e4 a1 3d 77 ce 5e 3e b1 77 68 bd bd 00 85 bd
       0.07904881 0.21758448 -0.05675477 -0.064942814
0003e0 41 95 42 be 5d 68 68 bd a1 a6 4e 3e 9c 46 2c be
       -0.19002248 -0.056740154 0.20180751 -0.1682381
0003f0 cf 68 0c be 42 26 23 3e d9 96 ef 3d f7 ca 2f 3e
       -0.13711856 0.15932563 0.11698694 0.17167269

TCNnetwork.0.net.4.bias f4 [32]
000000 38 e2 2a 3d 81 8f 4f 3d d4 53 9c 3c 05 94 ad bd
       0.041719645 0.050673965 0.019082941 -0.08475498
000010 da 64 13 3d 7b 42 e2 bb 02 5c 9b 3c a9 71 b8 3d
       0.03598485 -0.0069048977 0.018964771 0.09006054
000020 8e 02 0d bd 86 d6 35 3c 41 d7 01 3d 4b 0d d1 bd
       -0.034426264 0.01109851 0.031699423 -0.102076136
000030 f2 77 aa bd ba 4d 34 bd f5 81 72 bd 1e 65 58 bd
       -0.08323659 -0.04401944 -0.059205968 -0.052830808
000040 9f fc b6 3d af a1 88 3d 14 8f bc bd 2a c0 79 3c
       0.089349024 0.06671464 -0.092069775 0.015243569
000050 23 13 34 bd 32 0b 14 3b b9 5c 11 3d 2b b9 6f 3d
       -0.043963563 0.002258968 0.035488818 0.0585262
000060 a9 65 3b bc a1 56 54 bd f4 2c 2f 3d 96 a7 ef 3c
       -0.011437812 -0.05184043 0.04276748 0.029254716
000070 af 8c d0 bd 74 04 fc bc bb c6 82 3a 99 c6 76 bb
       -0.10183083 -0.030763842 0.0009977439 -0.0037654995

TCNnetwork.0.net.4.parametrizations.weight.original0 f4 [32, 1, 1]
000000 04 46 10 3f ed 8f 07 3f 32 5a 0e 3f a6 f3 04 3f
       0.56356835 0.5295399 0.5560638 0.5193428
000010 f8 e9 0a 3f 15 63 12 3f 93 25 09 3f ef 27 10 3f
       0.5426326 0.5718244 0.5357296 0.56310934
000020 25 89 1b 3f d4 4f 20 3f 12 05 21 3f 4c ca 06 3f
       0.6075614 0.6262181 0.6289836 0.5265243
000030 a6 d2 0e 3f 6c 92 1b 3f 34 39 19 3f a7 45 1f 3f
       0.55790174 0.607703 0.5985291 0.62215656
000040 51 b7 0a 3f 3e de 1b 3f 89 0d 11 3f 5d b6 0f 3f
       0.5418597 0.6088599 0.5666128 0.5613764
000050 d8 17 10 3f 06 e3 18 3f f0 d3 1f 3f d0 5a 12 3f
       0.5628638 0.5972141 0.62432766 0.5716982
000060 9f a6 08 3f 6b 56 04 3f f9 93 23 3f 1e e7 1c 3f
       0.53379244 0.51694363 0.63897663 0.61290157
000070 34 03 0f 3f 6c 3e 21 3f 5f 75 14 3f a6 27 14 3f
       0.5586426 0.62985873 0.57991594 0.57873

TCNnetwork.0.net.4.parametrizations.weight.original1 f4 [32, 32, 3]
000000 ba 7b cd bd af b6 60 bd ff fe 8b bd 6c 91 e9 bd
       -0.100333646 -0.05486172 -0.06835746 -0.1140469
000010 74 6a 23 bd 25 2d ef bc be de 09 bd cf a0 a5 bd
       -0.039896443 -0.029196331 -0.03365969 -0.080873124
000020 d7 63 72 bd e4 86 42 bd 70 96 ad bd 46 99 c1 3d
       -0.059177246 -0.047491923 -0.08475959 0.09453063
000030 e6 b7 93 3d 7a fc 63 3d 68 0d ac bd a9 45 bc bd
       0.0721281 0.055660702 -0.084009945 -0.09192974
000040 0e 98 c3 bc be a7 5c bd bb 29 92 bd f8 a7 d6 3d
       -0.023876216 -0.05387091 -0.07136866 0.10481256
000050 5f 73 bc 3d 0a 36 83 bc 97 04 03 bd d7 07 8c 3d
       0.09201693 -0.016016979 -0.0319868 0.06837433
000060 75 31 63 bd 2d bf e3 bd ef f4 12 3d 10 82 30 3d
       -0.055467088 -0.11120448 0.035878118 0.043092787
000070 2a 4c 89 3d 97 b4 68 3d b9 73 51 3a ad 87 5f 3d
       0.0670398 0.05681285 0.00079899613 0.05457275
000080 a0 da bf 3a e1 3c c4 3c 84 98 4e 3d 98 4c 84 bd
       0.0014637299 0.02395481 0.05043842 -0.064599216
000090 db 81 33 3d fa 3a f0 3c 11 47 e1 39 ed 27 d2 bc
       0.04382501 0.029324997 0.00042968293 -0.025653804
0000a0 29 29 e4 bd fb 4e b3 3c 8c f6 87 bd c3 f6 f1 bc
       -0.11140663 0.021888247 -0.06638822 -0.02953661
0000b0 88 da 9b 3d b0 c4 54 bb 9b 8f 13 3d 69 b1 ba 3d
       0.07610041 -0.0032465868 0.036025625 0.091158696
0000c0 49 f3 13 bd b7 5d b8 bd 65 e8 6e bc 3e 31 5a 3d
       -0.036120687 -0.0900225 -0.014581774 0.053269617
0000d0 ec 29 e9 bd a8 d6 eb 3c 07 8f 65 3d 45 a1 af bd
       -0.11384949 0.02878888 0.056044605 -0.085756816
0000e0 67 da 3b bc e0 f0 84 bd 2a ff 78 3d 9a e0 a5 3d
       -0.011465645 -0.06491256 0.06079022 0.0809948
0000f0 f3 6d dc bd 40 18 63 bd 3e cf 80 3d 8d 47 b1 bc
       -0.10763159 -0.05544305 0.06289528 -0.021640563
000100 4f 17 3c bd 36 79 93 bd 5b 85 21 bd 7e 8f 81 3d
       -0.045920666 -0.072008535 -0.03943382 0.06326197
000110 c6 96 24 3c da c9 82 bd 1a 12 72 bd fb 6d 8e bd
       0.010045713 -0.063861564 -0.059099294 -0.06954571
000120 04 4a 8a bd 61 dc 91 bd 15 93 67 3d a1 da 58 3a
       -0.067523986 -0.07122112 0.056536753 0.00082723243
000130 74 1f 1f bd d1 f8 d4 3d 25 a2 22 bd 68 08 10 bc
       -0.038848355 0.103990205 -0.039705414 -0.008791067
000140 65 3d ca bd ff 3f 5a bd fc 7e 94 3d c9 05 6c 3b
       -0.09874991 -0.053283688 0.07250783 0.003601419
000150 b3 7e 83 3d 6b 78 03 3e 22 33 e3 3d 46 da 65 bd
       0.0642065 0.12838905 0.11093737 -0.056116365
000160 11 85 19 bd b7 7d 8a 3d bb 64 8e bd 7a d6 4d bd
       -0.037480418 0.067622595 -0.069528066 -0.05025337
000170 2c 72 32 ba 89 d1 80 bc 0a 4f 1d bd 67 62 2f 3d
       -0.0006807174 -0.015724914 -0.038405456 0.042818453
000180 20 92 e5 bc e8 cf f9 bc f2 ab a6 bd 3d d8 cb bc
       -0.02802378 -0.030494645 -0.08138265 -0.024883384
000190 7c 1a 54 3d f6 6c 38 bd 30 2b ce bd 69 6f 02 3a
       0.05178307 -0.04502579 -0.10066831 0.0004975708
0001a0 72 88 13 bd 30 ee 7a 3d e2 48 24 bd 8a e0 a4 3d
       -0.036018796 0.06126231 -0.04010857 0.0805064
0001b0 d8 cd 05 bd 58 f9 8d bc d1 a7 da 3c 68 4a 9c 3d
       -0.03266701 -0.01733081 0.02669135 0.07631379
0001c0 e1 1e ac bc 26 02 87 3d 29 29 40 bd ce 0d 20 bd
       -0.021010818 0.06592207 -0.046914253 -0.039075665
0001d0 31 0d c4 3d 36 18 0a bd 13 ac 95 3d da b8 08 3d
       0.095728286 -0.033714496 0.07308211 0.033379413
0001e0 06 96 71 3c 7a 44 80 bd 0e 68 ba bd 9c fc 94 3c
       0.014745241 -0.06263061 -0.09101878 0.01818686
0001f0 0a de cd 3d a3 07 9c 3d 58 e6 32 bc 2d 8b 33 bd
       0.10052116 0.07618644 -0.010919176 -0.0438339
000200 55 dc 83 3c 2f 00 70 bc ae 14 3c bc b5 f0 ce bd
       0.016096273 -0.014648481 -0.01147954 -0.10104505
000210 2c c9 61 3d 9e ba b6 bc 53 25 1e 3b 36 a5 cd 3d
       0.055123493 -0.022305783 0.0024131134 0.10041277
000220 3c bd d8 3c 49 3d 94 bd 46 4a 0c bd 70 c8 d9 bb
       0.026457421 -0.07238252 -0.03425052 -0.0066462085
000230 e6 b6 eb bc 20 11 4c 3a 63 c0 b6 bc 56 0c d3 bd
       -0.028773736 0.0007784534 -0.022308534 -0.10305087
000240 83 f4 90 3b 85 1f 56 3c d9 bd f3 3d 3f a5 81 3d
       0.0044236793 0.013069038 0.11901445 0.06330346
000250 8a 07 c2 ba 12 72 1e bd 95 23 2e 3c 91 4e 48 bd
       -0.0014803272 -0.038683005 0.010628601 -0.04890305
000260 12 12 17 bd 75 50 36 3d ec f4 9e bd 35 19 cb bc
       -0.036882468 0.044510324 -0.07761559 -0.024792293
000270 6e dc 66 bc 10 e0 47 3c e4 d4 56 3d 3b 3f dd 3d
       -0.0140906405 0.012199417 0.052449122 0.10803076
000280 c7 93 aa 3b 8f e4 8a bd 7e f5 80 ba 3c 82 50 bd
       0.0052056047 -0.06781875 -0.0009838787 -0.05090545
000290 2d 12 69 3c 4c 0f 87 3c aa a2 81 bd 8a 76 aa 3d
       0.014225525 0.016486786 -0.06329854 0.08323391
0002a0 7c c2 68 bc df fe 58 bd e8 6d 1b 3d e2 6d 4f bc
       -0.014206525 -0.05297744 0.03794661 -0.012660475
0002b0 67 c0 b4 bd 23 36 53 bb af bd 15 3e 01 18 b7 3d
       -0.0882576 -0.0032228313 0.1462314 0.08940125
0002c0 1d fc 9d 3d f0 fb f9 bc 2c 85 95 3d b3 75 bc bd
       0.077141024 -0.030515641 0.07300791 -0.09202137
0002d0 f2 7b 99 3d c8 f3 e2 3c 9b 93 91 bd af c1 06 3d
       0.07494344 0.027704135 -0.07108232 0.032899555
0002e0 54 28 84 3c 91 2c 00 3d 20 2f 5b bd 20 f9 4e bd
       0.016132511 0.0312925 -0.05351174 -0.050530553
0002f0 fd ab 0d bb e6 f4 ee bc 06 51 68 3d ed a6 40 bd
       -0.0021617406 -0.029169511 0.056717895 -0.047034193
000300 f2 b5 4d 3d 97 af 95 bd 80 e2 95 bd f1 48 ab bd
       0.050222345 -0.07308882 -0.07318592 -0.08363522
000310 0e c3 88 bd 35 ea bf bd fd c8 e9 3d 56 50 f2 3d
       -0.06677829 -0.09370843 0.114152886 0.11831729
000320 01 12 03 3d eb 91 96 bd 86 f3 8c 3d 4a 26 24 bd
       0.03199959 -0.073520504 0.06882386 -0.040075578
000330 ed 60 ae bd 00 ed 95 bd 84 2a 05 be 1c 7a 71 bd
       -0.08514581 -0.07320595 -0.130045 -0.058954343
000340 a5 66 63 bd 69 b4 e0 bc 96 b4 4c 3d 14 08 bc 3c
       -0.05551781 -0.027429776 0.049976908 0.02295307
000350 8a 95 8d bd 5e 34 35 bd a6 40 b7 bd 5d 02 bc 3a
       -0.06913288 -0.044239394 -0.089478776 0.0014343966
000360 c4 d0 d8 bd 36 fa 91 bd a4 6a cb bd 21 1e 9a 3d
       -0.10586694 -0.07127802 -0.099324495 0.07525278
000370 20 a9 17 3d 54 79 33 bd 84 c5 86 3c f9 02 1d 3d
       0.037026525 -0.04381688 0.016451605 0.038332913
000380 d9 90 15 bc 7b 1e fd 3c 3c 4c 16 bd e8 b8 5a 3d
       -0.009128773 0.030898323 -0.036693797 0.053398997
000390 f5 95 48 bd 92 ba 81 bd 8d ac 11 3d 62 df 22 3d
       -0.048971135 -0.063344136 0.035564948 0.039763816
0003a0 0e 6a 1c 3c a9 db a6 3c 7c 76 08 3d a4 46 22 bb
       0.00954677 0.020368414 0.03331612 -0.0024761343
0003b0 07 bb e8 bd aa 08 aa bd d8 e7 9e bd 9e de ca 3d
       -0.11363798 -0.08302434 -0.077590644 0.09905742
0003c0 90 74 e5 bd 31 f1 74 bd 64 74 53 bc cf 7a 60 3d
       -0.11203873 -0.05980033 -0.012906168 0.05480462
0003d0 1d d4 da 3c ab 82 ab bc 17 fd a1 bd 8d 98 8f 3d
       0.026712472 -0.02093633 -0.07909601 0.070115186
0003e0 25 83 63 3d fd 5f be bd f5 cb 96 bd 60 da 5d 3d
       0.05554499 -0.09295652 -0.073631205 0.054163337
0003f0 68 a3 11 3d b8 59 aa 3d 3c 60 8a 3d 67 67 83 3c
       0.035556227 0.08317894 0.067566365 0.016040517

TCNnetwork.0.downsample.weight f4 [32, 7, 1]
000000 f8 2f 46 bc 12 0d 9e 3c c8 37 b5 3c 52 0a 6b 3b
       -0.012096398 0.019293342 0.022121325 0.0035864306
000010 94 18 77 3a 4b 8c df bc 3e 64 87 bb 5e cc 04 3c
       0.00094259647 -0.027288577 -0.004131823 0.008105366
000020 85 f3 ae bc df ec 2e 3d 6a 10 40 bc 00 2c ea bc
       -0.021356354 0.042706367 -0.011722663 -0.028585434
000030 42 60 f2 bc 37 d7 44 3b dc 08 49 bb 9b f9 79 3c
       -0.029586915 0.0030035505 -0.0030675447 0.0152572645
000040 d4 6d d7 3c f9 6f f2 bb 2b e2 a1 3b 29 e0 db bc
       0.026297487 -0.007398602 0.0049402914 -0.026840286
000050 da 9a d6 bc f1 1a 6c bc 9f 2d 90 3c 19 42 e0 3c
       -0.026196886 -0.01441072 0.017599879 0.027375268
000060 0d 44 05 3d 96 87 03 bd ce 7b 13 bd d1 ce a8 3c
       0.0325356 -0.032111727 -0.03600674 0.02060643
000070 d1 59 cb bc 0a e6 78 3b f6 14 9e 3c f8 bc a3 ba
       -0.024823101 0.003797891 0.019297104 -0.001249223
000080 62 ea ba bb 93 0e 0f bd cb 41 8b bb 25 82 a4 bb
       -0.00570421 -0.03492601 -0.0042497865 -0.0050203972
000090 f7 3a 36 3b 3a 72 c6 3a bf 97 aa 3c 56 58 7c bc
       0.0027806142 0.0015140243 0.020824311 -0.01540192
0000a0 fa 5a 97 3a d6 8b 30 3d 1e 31 c8 3b 27 9c 88 bc
       0.0011547499 0.043102108 0.006109371 -0.016676022
0000b0 af a8 9d 3b 17 05 75 bc 99 2e a4 3c b9 c7 dd bc
       0.0048113684 -0.014954827 0.02004175 -0.027072774
0000c0 b6 e2 21 bd 93 59 a0 bc 47 e5 c6 3c 3d 8d e7 bb
       -0.03952285 -0.019573962 0.02427925 -0.0070663975
0000d0 c0 8b 91 3c 4c f4 99 bc f2 ef 88 bb 48 7f 8a 3c
       0.017766833 -0.018793248 -0.0041789943 0.016906396
0000e0 1e e1 a3 3c ba e7 05 bb b3 0f f5 bb 93 75 ca 3c
       0.020004805 -0.002043231 -0.007478678 0.024714267
0000f0 9d 6f ae bc a2 bd 39 bb fa 0b 12 3d 10 3b 80 bc
       -0.021293456 -0.002834179 0.035655953 -0.015653163
000100 8d 8e 92 3c 76 e9 01 3d 5c 10 5d 3c 35 82 83 bc
       0.01789024 0.031716786 0.01349267 -0.016053298
000110 df 50 87 bc 43 3b ce 3c 65 27 b1 3c 56 ee db 3c
       -0.016518055 0.025174743 0.02162523 0.026847046
000120 33 ab d6 bc 62 88 4a 3d 9f 42 9c bc 80 e2 07 3d
       -0.026204681 0.04944647 -0.019074736 0.03317499
000130 64 84 ce 3c 75 51 ba bc 4f 21 f4 bc bb 6d 4f 3c
       0.025209613 -0.02274392 -0.029801039 0.012660439
000140 46 97 b6 3b 0f 96 ef 3b c2 14 bf bc f8 0c 11 3c
       0.0055722324 0.0073115896 -0.023325328 0.00885319
000150 c0 9f e6 bc ce b8 65 3c 50 58 27 3c 40 a1 cf 3c
       -0.028152347 0.014021112 0.010213926 0.025345445
000160 70 26 98 bc 78 fa db ba 6a 87 e0 3c c6 6d 2d 3c
       -0.018573016 -0.001678302 0.02740832 0.010585254
000170 8c f0 dc bb 6f da 70 3c 7a 3d c7 3c ac 08 46 3c
       -0.0067425426 0.014700516 0.024321306 0.0120870285
000180 49 af 11 bb 5d 10 11 3d 31 b9 91 bc 4e df 3f 3c
       -0.0022229722 0.035415996 -0.017788501 0.011710955
000190 ab e0 52 3c c5 0a db 3c d5 e9 b3 3b d5 e1 05 bc
       0.012870948 0.026738534 0.0054905214 -0.008171518
0001a0 de c0 17 3d b4 88 ac bb dc a5 31 3c 33 cb 87 ba
       0.037049167 -0.0052653197 0.010842767 -0.0010360241
0001b0 d4 4b b6 3a ce e1 46 bb 9c d0 27 bb 8d b1 65 3c
       0.0013908097 -0.0030346992 -0.0025606519 0.014019382
0001c0 a3 06 a6 3a dc 5a ce bb 1b f6 b6 3c cc 77 df 3c
       0.0012666773 -0.0062974524 0.02233415 0.027278803
0001d0 2c cd 58 bc 95 39 54 bd b3 49 d7 3c 45 6c 85 bc
       -0.013232511 -0.051812727 0.02628026 -0.016286978
0001e0 7a 0a f9 3b b5 88 b8 3c b3 e0 06 3d 05 06 e4 bb
       0.007600126 0.022526124 0.032929134 -0.0069587254
0001f0 45 74 2a bd 4a 40 f9 3c ab c2 0a bd 4a 38 22 bc
       -0.04161479 0.030426163 -0.033877056 -0.009901116
000200 cb 22 7d 3c 27 ca 34 3a 24 42 01 3d 90 cb d2 bc
       0.01545019 0.0006896578 0.031557217 -0.025731832
000210 6d f8 48 bc 33 bd ff bb df 78 bf 3c 41 4f 2a 3b
       -0.012266261 -0.0078045367 0.023373066 0.002598718
000220 b4 69 1e 3c ac 55 11 3c 1d 85 d5 bb ab 04 f2 3b
       0.009668756 0.008870523 -0.0065161125 0.0073858104
000230 f1 1b 87 bc fd 94 a5 bc c3 a5 aa 3c c4 95 6d 3c
       -0.016492816 -0.020212645 0.020830994 0.014501039
000240 18 93 30 bc 4d 3b 39 bc 8e ed 95 3c c7 9a 00 3d
       -0.010777257 -0.011305642 0.018301751 0.031397607
000250 50 3d 50 bc c7 29 10 bb 75 35 08 bd ff c8 8a 3c
       -0.012709931 -0.0021997557 -0.033254106 0.016941546
000260 48 57 9d 3c 78 50 20 bd 1c f8 d4 3c 5b 1b 38 3d
       0.019206658 -0.03913924 0.025997214 0.044947963
000270 66 39 f4 3b e2 f9 40 3d 2a 37 ca 3c d1 d5 2b bc
       0.0074531315 0.047113307 0.024684507 -0.0104879895
000280 cb 69 d5 bb 62 1d 0e bc 00 0d b9 3c ec a0 c1 ba
       -0.0065128556 -0.008673998 0.022589207 -0.001477269
000290 72 ba f4 3c 3f 6e ee 3a fd c7 52 bd cd 26 3e 3d
       0.02987406 0.0018190815 -0.051460255 0.046423722
0002a0 b0 8c 95 bc c1 e3 83 3b ad e3 18 3c 69 3a 58 3c
       -0.018255562 0.004024953 0.009331626 0.01319752
0002b0 df 99 cb bb ae 8d d4 3a 27 d5 9d bb a8 58 ac bb
       -0.006213411 0.001621654 -0.0048166695 -0.005259592
0002c0 c8 e4 3c 3c 25 31 54 3b d7 af 32 3c 88 90 8c bc
       0.011529155 0.0032377925 0.010906181 -0.017158762
0002d0 b8 40 49 3b be c2 a4 3b 72 a3 dd 3a db df dc 3c
       0.0030708741 0.005028098 0.0016909672 0.026962211
0002e0 00 13 bd bc d6 12 2d 3d 56 ae 16 3c 98 82 76 3a
       -0.023080349 0.04225429 0.009196838 0.0009403615
0002f0 f2 e4 c6 3c 95 8f 4b bc bf ec 65 bd 4f 72 41 bd
       0.024279092 -0.012424369 -0.05613398 -0.047228154
000300 63 6b ab bd c3 ad 89 3d 6f c8 81 3d 2a 16 d2 bd
       -0.08370092 0.067225955 0.06337058 -0.10258134
000310 fc 4a 9a bc 13 94 02 3a e9 2f ec 3c a4 dc 0e 3c
       -0.018834583 0.0004981171 0.02883144 0.008719597
000320 46 3c eb 3b d8 77 48 bd 4d d0 fb 3b 7f 45 81 bb
       0.007178816 -0.048942417 0.0076847435 -0.003945052
000330 86 cd 6c 3b 2b 66 b9 b6 87 c3 14 3b 07 a3 ef bc
       0.0036133244 -5.5253236e-06 0.0022699551 -0.029252542
000340 c2 3c 80 bc 2c 52 30 bb 97 72 75 bc 86 b7 22 3c
       -0.015653972 -0.0026904447 -0.014980934 0.009931451
000350 85 e7 4c 3c 3f 99 5e 3c a3 42 eb bb 1e 5a 0e bd
       0.01250637 0.013586341 -0.0071795746 -0.03475391
000360 29 21 e5 3c 7a 2c d8 bc 48 ab 2e 3b 80 c1 29 bc
       0.027969914 -0.026388396 0.0026652385 -0.010361075
000370 26 c3 63 3c 44 74 b7 bc 15 2b 8a ba bf 32 68 3c
       0.0139015075 -0.022394307 -0.0010541404 0.014172255

TCNnetwork.0.downsample.bias f4 [32]
000000 da a2 a8 be 20 e3 aa be f1 4f a0 be 55 63 6a 3e
       -0.32936746 -0.33376408 -0.3131099 0.22889455
000010 66 6a 91 bd 5f bf c8 3e 28 d4 af be cc 5a 60 3e
       -0.07100372 0.39208505 -0.3434155 0.21909636
000020 58 89 db 3d 47 ce 25 3e 80 81 b1 3e 2e 7a 98 bd
       0.107195556 0.1619197 0.34669113 -0.07445179
000030 83 dd 94 3e 10 2e 8c 3e 78 bd 11 3e a7 db 78 3d
       0.2907525 0.27378893 0.14232433 0.06075635
000040 86 81 ca 3d e8 5f a4 3e b5 3c f2 bd 14 92 28 be
       0.09887986 0.3210442 -0.11827985 -0.16461974
000050 70 f4 61 be 8f bf 91 be 7c aa 96 bb 3c 51 99 3e
       -0.22065902 -0.2846646 -0.00459796 0.2994479
000060 fe 99 c9 bd 77 58 9f be ba 11 10 3e 84 ea 6d be
       -0.09843825 -0.3112218 0.14069262 -0.23233992
000070 61 16 0d be 62 28 e4 bc 63 bd d5 3d ff 43 5c 3e
       -0.13778068 -0.027851287 0.10436513 0.21510313

TCNnetwork.1.fc1.weight f4 [2, 32]
000000 7e ab 34 bc 8d e3 ae 3d 2d 03 ca bd 06 75 25 3e
       -0.011027215 0.085394956 -0.09863887 0.16157922
000010 30 6c 1b 3e 61 77 c5 bd e8 b8 93 3d 8a 13 2c 3d
       0.15177989 -0.0964191 0.072130024 0.04201082
000020 25 25 09 3d b0 94 bc 3d c9 fe 31 bc 76 fc 11 be
       0.03348269 0.092080474 -0.010863968 -0.14256462
000030 51 80 e9 bc 30 e9 e0 bd 58 c8 bd bc cc 57 06 3d
       -0.028503569 -0.10981977 -0.02316682 0.032798573
000040 4c d9 18 3e 2d 4f e4 bd 3c e6 81 3d b4 24 d5 bd
       0.14926642 -0.11147914 0.06342742 -0.10407391
000050 ab ef 16 be 4f 38 5c 3e 09 f7 11 3d dc cb d1 bd
       -0.14739864 0.21505855 0.03563598 -0.10243961
000060 3a 32 4a bd b2 28 8f 3d 06 c8 0f be 72 63 06 3e
       -0.049364306 0.06990184 -0.14041147 0.13123873
000070 95 8f 86 bd 8c 79 b8 3d b0 fc e7 bd 27 b5 59 bb
       -0.06570355 0.09007558 -0.11327493 -0.0033219547
000080 0e 22 f3 3d 6e a4 a4 bd b4 a1 0e 3e 46 5c 9e 3c
       0.1187173 -0.08039175 0.13928872 0.019331109
000090 2c 56 02 be 1f 2e 51 bc 29 ad 5e bc 71 2f aa 3d
       -0.12728184 -0.012767344 -0.013591089 0.0830983
0000a0 1d 97 d1 bd 1f d9 5a bd b8 23 bc bd 13 da 80 3d
       -0.10233901 -0.05342972 -0.091865 0.06291594
0000b0 e1 a9 16 3d ad bf 45 bd 19 fb 0b 3d 3e 28 e2 3d
       0.036783103 -0.0482785 0.034175012 0.11042832
0000c0 ea 15 37 3c 82 a6 96 3d 77 2f 93 3d 45 ff 05 be
       0.011174658 0.073559776 0.071867876 -0.13085659
0000d0 2e 95 e8 bd 28 ce d4 bc ad ab 5d 3c bb c9 c6 3d
       -0.11356579 -0.02597721 0.0135297 0.09706446
0000e0 f2 02 f7 3d b3 56 f9 3d 2f b2 28 3e d0 52 88 3d
       0.12061109 0.1217474 0.16474222 0.0665642
0000f0 72 5b 8c 3c a7 c8 09 3e 23 1e 28 3e d2 23 08 be
       0.017133448 0.13455449 0.16417746 -0.13294914

TCNnetwork.1.fc1.bias f4 [2]
000000 7e 19 66 3e b4 6b f8 bd
       0.22470662 -0.12129918

TCNnetwork.1.fc2.weight f4 [32, 2]
000000 25 f8 de 3e e7 e4 ab 3e fa 62 66 3e 81 3b b1 be
       0.43548694 0.33573076 0.22498694 -0.3461571
000010 d1 9c 11 3e fd bb 21 bf 85 e7 c0 3d 06 5a 92 3e
       0.14219977 -0.6317747 0.09419159 0.28584307
000020 60 02 b3 3e 21 e2 25 bf 36 5a 2a bf e2 8d 84 bd
       0.3496275 -0.6479817 -0.665439 -0.064723745
000030 6e 5f ec be 0b f4 64 be 74 d5 a8 3e 35 17 f3 3d
       -0.46166557 -0.2235872 0.32975352 0.11869661
000040 d2 a1 2b 3f c9 9d 95 3e bd ff 81 bd b3 89 0d 3f
       0.67043793 0.29221943 -0.06347606 0.5528824
000050 77 b9 39 3e 4b c3 e6 bd ec ce ea 3e 18 28 e7 3e
       0.18137155 -0.11267718 0.45860994 0.45147777
000060 18 10 2a 3f 29 34 53 be 5a 3e 50 be d0 44 41 be
       0.6643081 -0.20625366 -0.20336285 -0.18873906
000070 e4 3e 3b bf cd 5d b6 bd 52 bb d3 3d af c9 01 3f
       -0.7314284 -0.0890461 0.10338463 0.5069837
000080 e8 6f a1 3e eb 66 01 3f 2d 3b 68 3e af d3 0b 3f
       0.3153069 0.50547665 0.22678824 0.5461988
000090 66 df f3 be 5e 03 18 bf ec f6 ee be 86 32 08 bf
       -0.47631377 -0.5938014 -0.4667276 -0.5320209
0000a0 0e 93 30 3d 48 74 1b 3f 99 dd 7b be 80 a1 1b 3f
       0.043108992 0.60724306 -0.24596252 0.60793304
0000b0 aa 66 a3 be 44 da 64 be 81 17 a0 3e 7a 8f 56 bd
       -0.31914264 -0.22348887 0.31267932 -0.052382924
0000c0 eb 21 ea be 42 1f 26 3e bf 63 9a 3e 15 d4 06 bf
       -0.45729002 0.16222861 0.30154225 -0.5266736
0000d0 9c 20 c0 3e 7a f1 2b be f3 bf 04 3f ec 7e 06 bf
       0.3752488 -0.16791335 0.5185539 -0.5253742
0000e0 4e bb d1 3c 39 c4 0b bf 04 89 02 be b8 d3 18 bf
       0.02560201 -0.54596287 -0.1274758 -0.5969806
0000f0 69 9b d4 3e 04 94 8b 3e 72 1c 04 bb 81 62 b3 3d
       0.4152482 0.27261364 -0.0020158556 0.087590225

TCNnetwork.1.fc2.bias f4 [32]
000000 8c d0 e1 bd fd 1d 94 3d db ac ac 3e ba d6 06 3f
       -0.11026105 0.07232282 0.33725628 0.52671397
000010 da f0 74 3e aa b7 05 3f f3 dc d6 3e 33 01 d2 be
       0.23920003 0.52233374 0.41965446 -0.4101654
000020 dd 9a 21 3e 59 6c 93 3e 3e fa 8a 3e db 96 29 3f
       0.15781732 0.287936 0.27144045 0.6624581
000030 d1 99 34 bf 48 04 56 3e 75 15 16 3e 9a 9b 71 3e
       -0.70547205 0.2090007 0.14656623 0.23594514
000040 38 20 f1 bc f4 5f 27 bf 0b 60 9e 3e 30 e6 d5 3e
       -0.029434308 -0.6538079 0.3093265 0.41777182
000050 96 b2 84 be 2f 07 04 3f 90 d5 0c 3f b9 f5 6e bd
       -0.259175 0.5157346 0.5501337 -0.058339808
000060 d0 b8 d3 3e 3f 29 f1 3e 5f 60 1d be 92 a8 db 3c
       0.41351938 0.4710178 -0.15368794 0.026813779
000070 4b b6 c2 3e c2 d3 4d bd d1 f7 c5 3e c1 f3 a2 3b
       0.38029703 -0.050250776 0.3866563 0.0049729054

TCNnetwork.2.conv1.bias f4 [64]
000000 43 d2 be 3b 1b 7e 35 bd b2 96 97 bd b2 00 c0 bd
       0.005823405 -0.044309717 -0.0740179 -0.093751326
000010 39 a0 24 3d 64 6e e2 bd d8 36 8f 3d 90 73 2c bd
       0.040191863 -0.110562116 0.069928825 -0.042102396
000020 52 bd a4 bb bd ca b2 bc b8 b1 cd 3c 68 40 c5 3c
       -0.0050274516 -0.021825189 0.025109157 0.024078563
000030 d5 d0 fa bd ba dc dd 3c 3c a2 bf 3c 0c d9 0e 3d
       -0.12246863 0.02708279 0.023392789 0.03487496
000040 9a 13 b0 3d ff 74 49 bc ec 93 99 3d 19 4e ad 3c
       0.08597489 -0.01229596 0.07498917 0.021155404
000050 a5 c6 c1 bd 9b c9 04 bd 4c f4 e7 bd 8e 9d da bb
       -0.094617166 -0.03241883 -0.11325893 -0.006671614
000060 62 47 e4 bd b9 79 83 3d e0 ae 42 bd 3c 62 66 3b
       -0.11146428 0.06419701 -0.047530055 0.0035153767
000070 86 6a dc 3b 68 5e 17 3d 91 00 56 3d a7 32 d0 bd
       0.006726566 0.036955267 0.052246634 -0.10165911
000080 22 34 00 ba 93 31 6b bd 67 96 13 3d ec 16 81 3d
       -0.0004890581 -0.057420325 0.036032107 0.063032
000090 8c 70 fa bd d9 d5 b9 bc 40 cd 98 3d 5f 22 a8 3d
       -0.12228498 -0.022684978 0.07461023 0.08209681
0000a0 aa b3 fe bc 1c d9 22 3d 9f cd a8 3d 0d 83 dd bd
       -0.03109153 0.039757833 0.08242344 -0.108160116
0000b0 38 88 6c 3d 32 7f f2 bb 62 3b fa bd 23 ac e0 3c
       0.057747096 -0.007400417 -0.122183576 0.027425831
0000c0 1c 67 6b bc 3b b5 86 3b 0e e4 2b bd ee 92 ca bd
       -0.014367845 0.00411096 -0.041965537 -0.09891306
0000d0 f5 37 8e 3c 7d ad 85 3d aa 95 8c 3d 3e 7c a5 3d
       0.017360667 0.06527231 0.06864484 0.08080338
0000e0 80 3f b1 bd 41 ba c8 bd 66 a5 ca bc 53 f6 84 3d
       -0.0865469 -0.0980115 -0.024737071 0.06492295
0000f0 d3 f4 a2 3d 0e 8b 46 3c 58 21 27 3c d4 c5 85 3c
       0.07956853 0.012118114 0.010200821 0.016329683

TCNnetwork.2.conv1.parametrizations.weight.original0 f4 [64, 1, 1]
000000 1b 8f 15 3f 80 70 11 3f 01 2a 17 3f 39 5d 12 3f
       0.58421487 0.56812286 0.5904847 0.57173496
000010 1b d8 16 3f dc 46 0e 3f 0c 8e 27 3f 0c 5b 10 3f
       0.589235 0.5557687 0.6545112 0.56388927
000020 3c 0e 1a 3f 59 5f 0f 3f c8 a6 1a 3f 85 9d 1b 3f
       0.6017797 0.56004864 0.6041074 0.6078723
000030 a6 e1 13 3f e8 a4 12 3f d4 e8 09 3f e4 63 0c 3f
       0.5776619 0.57282877 0.5387089 0.5483992
000040 62 d0 14 3f dd 5c 16 3f d6 25 12 3f f7 8f 1c 3f
       0.58130467 0.5873545 0.57088983 0.6115717
000050 71 f6 0e 3f ba a3 18 3f 56 b1 1d 3f 34 98 12 3f
       0.5584479 0.59624827 0.6159872 0.57263494
000060 c1 96 06 3f 8e 28 1a 3f 14 4a 14 3f 53 d9 0d 3f
       0.5257378 0.6021813 0.57925534 0.55409735
000070 a0 b4 1a 3f b1 66 06 3f 0b 97 17 3f c2 1b 10 3f
       0.6043186 0.52500445 0.5921485 0.56292355
000080 aa 9a 0c 3f 78 20 09 3f d5 09 0a 3f 3d 0c 1c 3f
       0.549235 0.5356517 0.5392125 0.60956174
000090 7a 62 12 3f 84 88 13 3f 66 86 22 3f 11 e7 19 3f
       0.57181513 0.5763018 0.63486326 0.60118204
0000a0 76 dd 1b 3f 1a f9 16 3f 2c 56 1a 3f bf 8a 04 3f
       0.608848 0.5897385 0.6028774 0.5177421
0000b0 54 3b 11 3f a4 91 0d 3f 2f 75 19 3f 8f 82 11 3f
       0.5673115 0.55300355 0.5994443 0.5683984
0000c0 40 e2 14 3f d2 cd 1e 3f 6a f3 10 3f 3d 49 18 3f
       0.5815773 0.62032807 0.5662142 0.5948675
0000d0 ea 70 10 3f 27 5a 1c 3f 67 1c 0f 3f 5a a1 10 3f
       0.56422293 0.6107506 0.55902714 0.564962
0000e0 82 bf 13 3f 8d 31 15 3f 99 04 10 3f ad 03 1b 3f
       0.5771409 0.58278733 0.56257015 0.60552484
0000f0 6c ec 0c 3f 97 ca 1d 3f 8f 79 12 3f 60 63 11 3f
       0.5504825 0.6163725 0.57216734 0.5679226
