best_model_tsebg_etth1.pt (torch, 965077 bytes, 79 tensors)

TCNnetwork.0.conv1.bias f4 [32]
000000 86 8a a7 bd d6 d7 37 3e e4 dc b3 bd 8b 00 1e 3e
       -0.08180718 0.17953429 -0.08782366 0.15429895
000010 28 4a 00 3d 9c ad 2f 3e 5d 30 f8 bd b2 fd 97 bd
       0.03132072 0.1715607 -0.121185996 -0.074214354
000020 42 ea 48 3d ad ad bf 3c 25 b0 bf bd b2 e4 05 be
       0.04905153 0.023398245 -0.09359769 -0.13075522
000030 df 95 3e bd 66 59 a2 3d a0 18 19 be 8c d1 30 be
       -0.046529647 0.07927208 -0.149508 -0.17267436
000040 77 94 0e 3c d3 cc a3 3d d6 92 be 3c 90 e0 57 bc
       0.008702389 0.079980515 0.023263376 -0.0131760985
000050 9a 75 e9 3d 3a 67 02 3e 2a be 54 bb 8e f7 1c 3d
       0.11399384 0.1273469 -0.003246198 0.038322024
000060 38 33 bf bd ef e9 94 3c 14 9d f2 bc 2d de 4a 3d
       -0.09335941 0.018177954 -0.029615916 0.04952829
000070 a0 9c 0f 3c 94 6d d1 bd 5a e6 0e 3e c1 63 18 3e
       0.00876537 -0.102259785 0.1395506 0.14881803

TCNnetwork.0.conv1.parametrizations.weight.original0 f4 [32, 1, 1]
000000 d3 f6 41 3f 34 43 16 3f 9f 8d f0 3e d2 c2 2a 3f
       0.7576725 0.58696294 0.46983048 0.6670352
000010 ea ce 24 3f 26 03 10 3f 81 4d 22 3f ba e8 16 3f
       0.64378226 0.56254804 0.6339951 0.5894886
000020 21 d1 3c 3f 54 e4 04 3f 16 48 16 3f e3 89 1f 3f
       0.73756605 0.519109 0.58703744 0.62319773
000030 e8 7b 11 3f 82 99 17 3f 80 70 31 3f 4b 6d 22 3f
       0.5682969 0.5921861 0.69312286 0.6344802
000040 c1 5f 21 3f 02 a3 13 3f a4 14 11 3f e9 2c 1e 3f
       0.63036734 0.57670605 0.5667212 0.6178728
000050 f5 a7 0f 3f 95 29 1a 3f 2f ef d8 3e aa ef 29 3f
       0.5611566 0.602197 0.42369983 0.66381323
000060 12 d0 f9 3e 55 25 30 3f c9 c9 21 3f ae 34 21 3f
       0.48791558 0.68806964 0.63198525 0.6297101
000070 26 a7 21 3f 9f 1c 08 3f b0 ce 0c 3f 97 70 3a 3f
       0.63145673 0.5316867 0.5500288 0.7282805

TCNnetwork.0.conv1.parametrizations.weight.original1 f4 [32, 7, 3]
000000 38 e7 59 be 98 1a f0 3c fd 65 29 be dc 57 d7 bd
       -0.21279609 0.029309556 -0.16542812 -0.10514805
000010 fc e9 f0 bc 0f 61 ad 3b a3 7d 36 be 9e 11 7a be
       -0.029408447 0.0052911113 -0.17821364 -0.24420783
000020 49 7b 4e be ad f3 87 be cd 0f 84 be 5b 5b ee bc
       -0.20164217 -0.26553097 -0.25793305 -0.029096296
000030 7c e1 9b 3d 97 00 df 3d 2c 6b d4 3b 17 38 1f 3e
       0.07611367 0.108887844 0.0064825024 0.1554874
000040 a5 a5 42 3e aa e9 06 3e db 33 12 bd d4 50 08 bc
       0.19008501 0.13175073 -0.035693984 -0.008320052
000050 aa 58 35 bd 13 eb ac 3d 43 88 e9 bc 1c be 1d 3e
       -0.04427401 0.08443274 -0.028507357 0.15404552
000060 7d d3 3c bd 15 01 30 3e ee 76 a7 3d 1a 35 60 bd
       -0.04610013 0.17187913 0.08176981 -0.05473814
000070 f6 42 21 be 99 67 0c 3d 7e a5 c3 bb b8 e3 02 be
       -0.157482 0.034278486 -0.005970656 -0.1278218
000080 22 6f d8 3d 8e 83 54 bd 20 68 69 be 4f 3a 0b be
       0.10568072 -0.051883273 -0.22793627 -0.13596462
000090 de 21 4e 3e fb b8 b9 3d 0e 06 21 be 65 ce 09 3e
       0.20130107 0.09068485 -0.15724966 0.1345764
0000a0 f8 de 09 bd da 05 7c be b5 b4 0a 3d 8a d6 92 bd
       -0.033659905 -0.24611607 0.033863742 -0.07169826
0000b0 cc ef a1 bd 92 92 c5 3b 1e 66 3e be 9a 87 a5 3b
       -0.07907066 0.0060294354 -0.18593642 0.0050515654
0000c0 39 ef ca 3d ea 51 cc 3c 16 9e d4 bc 17 e1 67 3d
       0.09908909 0.024941403 -0.025954287 0.056611147
0000d0 27 64 14 bd 7a 36 a3 bd 44 3c 12 3c 66 23 1a bc
       -0.036228325 -0.07969375 0.008925501 -0.009407854
0000e0 5e 09 18 3d ea 99 9b 3c 9d ea 96 3e 8c 79 84 3e
       0.03711831 0.01899429 0.2947587 0.25873983
0000f0 15 1d 77 bd e1 ef c5 3d b3 39 5c 3d 4f 93 34 3e
       -0.06033047 0.09664894 0.053765964 0.17634319
000100 16 f3 2c 3e e4 e4 d1 3d 37 fe 96 3d fa 48 ef 3b
       0.16889605 0.102487355 0.073727064 0.0073024007
000110 81 f8 e6 bd ba eb 05 be 05 2e 34 3e 32 60 9f 3d
       -0.11277867 -0.13078204 0.1759568 0.0778202
000120 58 11 53 be d1 26 f6 3c f4 ba d8 bd 93 ea 20 be
       -0.20612085 0.030047806 -0.105825335 -0.15714483
000130 36 31 6b 3e 73 60 5c 3d 25 15 69 3d b4 cb ea bc
       0.22967991 0.05380292 0.05690493 -0.028661586
000140 65 89 52 be 8d ae 33 3e ff 1f d1 bd c5 5f 76 be
       -0.20560224 0.17547055 -0.10211181 -0.2405997
000150 53 8f 34 3e 81 f3 9d bd 6a 5b be bd 8a ea 22 3e
       0.17632799 -0.0771246 -0.092947796 0.15909782
000160 6c 5f cd 3d 27 1c 1f be b6 fd cf bc f9 55 da bd
       0.10027966 -0.15538083 -0.025389533 -0.10660929
000170 19 2b 15 3e 87 78 84 be f3 40 46 be 70 3c 16 be
       0.14567222 -0.25873205 -0.19360714 -0.14671493
000180 c6 14 b4 bd e4 cc 5e 3e 41 65 92 bd e0 e4 87 3b
       -0.08793025 0.21757847 -0.07148219 0.004147157
000190 40 7e b8 3d 3b 59 b0 3c 22 dd ea 38 9f f5 17 bd
       0.09008455 0.021526923 0.00011199179 -0.037099477
0001a0 01 85 45 be dd 11 12 3e 9e 67 dc bd 59 d4 e0 3c
       -0.19289018 0.14264627 -0.10761951 0.027445005
0001b0 61 d4 20 3e 08 6f ae 3d 7a dc 26 be 87 63 c7 bc
       0.15706016 0.08517271 -0.16295043 -0.02433945
0001c0 3a 5f 91 3c d7 59 a7 3d 38 2a 41 3e 6e 02 60 3e
       0.017745603 0.081714325 0.18863761 0.21875927
0001d0 ea c4 fb 3c 29 9b 20 3e 66 58 b6 bd 54 df 15 be
       0.030733544 0.15684189 -0.089035794 -0.14635974
0001e0 b7 6a 0c be a7 b6 0c 3e 7d 51 35 3d 8d 12 95 3d
       -0.13712583 0.13741551 0.044267166 0.07278929
0001f0 41 b0 d7 bd 72 36 f5 bd 9e b1 78 bc 81 c2 81 b9
       -0.10531665 -0.11973275 -0.015179066 -0.00024749714
000200 46 cc 3f be 99 37 4d 3e ef d4 82 bd 98 58 f8 bc
       -0.18730268 0.2004074 -0.0638827 -0.030315682
000210 52 3c 03 be 6f 06 e4 3b 2b 86 c7 bd df f5 80 3e
       -0.12815979 0.0069587748 -0.097423874 0.25187585
000220 47 55 86 3e 6b 5c d7 3d d3 25 1e be f2 6a 95 3d
       0.26236936 0.10515674 -0.15444116 0.07295789
000230 a8 d8 23 3d c2 18 04 3e f0 32 4b be d6 7a 6d bd
       0.04000154 0.1290007 -0.1984365 -0.057978474
000240 1d 51 b0 3c 15 09 33 bb bd d2 cf 3c 60 dd 1e 3d
       0.021523053 -0.0027318646 0.025369043 0.03878534
000250 78 85 6f 3e ea 98 41 be 00 cb 20 be 0e 71 d8 3c
       0.23390758 -0.18905988 -0.15702438 0.026421096
000260 59 92 c8 bd 63 40 48 3c 9b b2 df bd 54 83 17 be
       -0.097935386 0.012222382 -0.10922738 -0.14796191
000270 57 95 b7 3d 2f 94 92 3b 91 b7 03 3e 73 7b c5 3d
       0.08964031 0.0044732313 0.12862994 0.09642687
000280 0b 9e 16 be 13 d2 bf 3d 40 2f 20 3d ef 4f b3 bd
       -0.14708726 0.0936624 0.03910756 -0.087554805
000290 f9 f2 32 be a6 70 db bd d1 be 4c 3e 58 b6 1a be
       -0.17475499 -0.10714845 0.19994666 -0.15108621
0002a0 e0 8e 27 be 2e df 10 be b7 0f 2a 3e 22 44 11 3c
       -0.16363096 -0.14147636 0.16607557 0.008866342
0002b0 fa ef 45 be 16 20 16 3e df 5c 44 be 48 b7 6e be
       -0.19329825 0.14660677 -0.19176053 -0.23312104
0002c0 bb 77 36 be 76 34 a6 3c 47 c1 37 be 90 43 30 be
       -0.17819111 0.020288687 -0.17944823 -0.17213273
0002d0 39 7f 8a bc 38 c4 91 bd 30 95 7c 3e 94 7d 92 3b
       -0.016906368 -0.07117504 0.24666286 0.0044705365
0002e0 4c e3 44 bd 4e 7f 53 3e 9f 18 51 be 11 82 b3 bd
       -0.04806833 0.20654032 -0.20419548 -0.087650426
0002f0 47 a4 55 3e 5f 12 19 be 72 83 f6 3d b2 08 05 be
       0.20863448 -0.14948414 0.1203679 -0.12991598
000300 4a 5d 34 be b7 da a1 bd 8a dd 23 be 06 16 e3 bc
       -0.17613712 -0.07903045 -0.16002479 -0.027720463
000310 5c fd b5 bd 32 f4 6f bd 67 c2 95 bd 1f bb c7 bd
       -0.08886215 -0.058582492 -0.0731247 -0.097524874
000320 42 78 e5 bd 96 d0 2f b7 ce d2 1c 3d 48 e7 5d bd
       -0.11204578 -1.0479378e-05 0.038286977 -0.054175645
000330 1e f5 da bd e1 e3 3b 3e aa 20 2c be fe 2b 56 3e
       -0.10691284 0.18348648 -0.16809335 0.20915219
000340 96 7a 9e 3d eb 0c 10 bd 69 13 56 be 9a 99 01 3d
       0.07738225 -0.03516857 -0.20905842 0.031640626
000350 34 65 49 be d3 0e 20 3e 0a b1 94 3c 62 4d 31 be
       -0.19667512 0.15630655 0.018150825 -0.17314675
000360 7b d1 55 3e 65 8f fd 3c f9 88 95 3d 4b 9b 09 bb
       0.20880692 0.030952165 0.07301516 -0.0020997103
000370 4d 50 4d 3e d4 03 c6 bd cc 75 2d be e2 ac ea 3d
       0.20050164 -0.09668699 -0.16939467 0.11458756
000380 46 e8 4e bd a2 5a 4b 3d 9f 36 21 be e0 ce d1 3d
       -0.050514482 0.04964698 -0.15743493 0.102445364
000390 e9 6e 4b be 52 ec 29 bc 25 a1 ad bd 48 66 2c be
       -0.19866528 -0.010371285 -0.084780015 -0.16835892
0003a0 61 0f d8 3d bb a4 bc bc f7 1a b6 3b db 39 81 be
       0.10549808 -0.023027768 0.0055574137 -0.25239453
0003b0 b3 18 22 3e 4e 0f 3d be 25 c0 b3 bd 1d b2 dc bd
       0.15829735 -0.1846287 -0.08776883 -0.1077616
0003c0 b2 71 57 be 18 9a 3e 3d 32 1a d3 bd 7b 3d bc 3d
       -0.21039465 0.046533674 -0.10307731 0.09191414
0003d0 48 d2 82 3d 96 fb 46 3e e5 fe 7d bd 11 db 8d bd
       0.06387764 0.1943191 -0.062010664 -0.06926549
0003e0 5c 9e 50 be 72 aa 39 bc 63 a0 6b 3e b9 f7 06 be
       -0.2037291 -0.011332141 0.23010401 -0.13180436
0003f0 17 5b 34 be c7 df 10 3e 1d e8 ca 3d 27 30 36 3e
       -0.17612873 0.14147864 0.09907553 0.17791806

TCNnetwork.0.conv2.bias f4 [32]
000000 10 df 72 3d ac f9 2b 3d 79 5a b7 3c 27 98 a3 bd
       0.05929476 0.041986153 0.022382008 -0.07988005
000010 0d 8e 5a 3d b9 21 ef bc a1 71 ff 3c 24 ef 82 3d
       0.053358126 -0.029190885 0.031182112 0.06393269
000020 c2 16 7d bd 78 39 8f 3b f0 0a 8a bc 68 34 99 bd
       -0.06178928 0.0043708645 -0.016850919 -0.07480699
000030 63 e4 99 bd 11 94 7a bd 4c 8f 1c bd 3d 1b 41 bd
       -0.075142644 -0.061176363 -0.038222596 -0.047145117
000040 0c 30 85 3d 3c 3d 25 3d 4a e2 9f bd f3 ea 45 3c
       0.06503305 0.0403416 -0.07806833 0.012079942
000050 21 b0 32 bd ae c7 1a bc 68 3d 25 bc 63 61 40 3d
       -0.043625 -0.009447021 -0.010085441 0.046967875
000060 2b 94 dd 3b 3d 0d 47 bd 2b ab 97 3b 4f c1 08 3d
       0.0067620478 -0.04859661 0.004628559 0.03338748
000070 54 b5 9a bd f4 8d 11 bd cc 39 c0 bc 75 93 46 3c
       -0.07554117 -0.035535768 -0.02346506 0.012120117

TCNnetwork.0.conv2.parametrizations.weight.original0 f4 [32, 1, 1]
000000 6b c9 13 3f 15 5b 09 3f 33 13 13 3f 1a ad 05 3f
       0.57729214 0.53654605 0.5745117 0.5221726
000010 dc 9f 0e 3f 8e a5 0c 3f d1 fe 0f 3f 20 0c 0e 3f
       0.55712676 0.54940116 0.56248194 0.5548725
000020 e5 35 17 3f 64 3b 27 3f b0 1d 15 3f d4 82 12 3f
       0.5906661 0.65325 0.58248425 0.5723088
000030 8d e8 0e 3f 15 cd 16 3f fd 91 1c 3f b1 bf 22 3f
       0.55823594 0.5890668 0.6116026 0.6357375
000040 20 15 02 3f 32 a1 18 3f fd 01 14 3f e7 ca 16 3f
       0.50813484 0.59620965 0.57815534 0.58903354
000050 97 cd 13 3f 85 e0 14 3f 5b e8 1f 3f 37 02 0b 3f
       0.5773558 0.5815509 0.6246392 0.54300255
000060 e4 b1 0d 3f 0e 3b 05 3f 97 62 1a 3f a8 92 15 3f
       0.55349565 0.52043235 0.60306686 0.58426905
000070 98 41 17 3f 67 49 27 3f c9 01 15 3f d2 ea 11 3f
       0.59084463 0.6534638 0.5820585 0.5699893

TCNnetwork.0.conv2.parametrizations.weight.original1 f4 [32, 32, 3]
000000 b3 25 62 3a eb 29 c4 3d 97 0b b6 3d 01 16 f2 bd
       0.00086268334 0.09578308 0.08888929 -0.11820603
000010 1c 77 10 bd 2d 9e a4 bc b9 b0 15 bc e9 00 61 bd
       -0.03526984 -0.020094955 -0.009136372 -0.05493251
000020 f1 e5 02 bd f8 14 b4 bb 2f 27 47 bd e2 aa 13 3e
       -0.03195757 -0.0054956637 -0.048621353 0.14420655
000030 64 7c fb 3d 0c a9 e4 3d 3f 25 f9 3b 0d 6f a8 bd
       0.12279585 0.11165056 0.007603317 -0.08224306
000040 bf 8b 5b bc 42 50 10 bd de 8f 9f bd 68 88 74 3d
       -0.013400017 -0.03523279 -0.07791112 0.0597004
000050 ea 0a 56 3d af 19 5c bc f8 63 c3 bc 1b 5d 5e 3d
       0.052256502 -0.013433858 -0.02385138 0.05428801
000060 7c ba 8c 3d 32 2a f8 bc d4 a8 0c 3e 49 12 97 3d
       0.068715066 -0.030293558 0.13736278 0.073765345
000070 31 81 c2 3d 2d 99 b5 3d 0c fe 90 3b ff 07 40 3d
       0.094972976 0.088671066 0.004424816 0.046882626
000080 58 ce b8 bb a0 12 f9 3c 30 eb 76 3d 47 78 30 bd
       -0.0056398325 0.030404389 0.060282886 -0.043083455
000090 44 d6 51 3d b4 d1 14 3d 1e ff 2a b9 5c 76 13 3c
       0.05122973 0.0363328 -0.00016307502 0.009000387
0000a0 ed 77 48 bd 32 d5 22 3d 00 f7 12 3d f7 70 a1 3d
       -0.048942495 0.0397541 0.03588009 0.078828745
0000b0 af a5 16 3e 4c 61 ce bc bd 45 2e 3c be 49 75 3d
       0.14711641 -0.02519288 0.010636744 0.05988478
0000c0 2e 1d e3 bc 28 da aa bd c0 b7 9c ba 18 be b9 3d
       -0.027723875 -0.08342391 -0.0011956617 0.09069461
0000d0 56 a8 95 bd f5 c9 90 3d 47 2a 6b 3d c0 2f 9a bd
       -0.07307498 0.0706977 0.057413366 -0.07528639
0000e0 8a 2a fc bb 4b ab a2 bd 8d 3c 5a 3c 47 51 0d 3d
       -0.0076955007 -0.07942828 0.0133201005 0.03450134
0000f0 3f 77 80 bd 5b 29 01 bc f0 4b b4 3d e7 71 0b 3c
       -0.062727444 -0.007883395 0.088035464 0.008511043
000100 76 b3 ac bc 6b ee 55 bd c1 5b 09 bc a5 fa a1 3d
       -0.021081667 -0.052229326 -0.008383692 0.07909135
000110 69 3e 4e 3d dc e5 ca bc 9a 85 a1 bc 36 d4 f3 bc
       0.050352488 -0.024767809 -0.019717027 -0.029764276
000120 4c cb 0d bd 10 04 31 bd 9a 04 98 3d ee 1e c4 3d
       -0.034617707 -0.043216765 0.07422753 0.09576212
000130 b8 09 57 3d 73 81 38 3e 21 3b 2b bd 1b db 0a bc
       0.052499503 0.18018131 -0.041804437 -0.00847509
000140 cc a9 b1 bd 98 16 57 bd a4 93 32 3d b3 23 a6 3a
       -0.08674964 -0.05251178 0.043597832 0.0012675434
000150 de 02 18 3c 2f c7 9e 3d 1b 1c 66 3d 28 6d 94 bd
       0.009278027 0.07752835 0.056179147 -0.072473824
000160 98 74 5a bd 7a 9f 1b 3c c4 0e b1 bd ee d8 96 bd
       -0.05333385 0.009498471 -0.086453944 -0.07365595
000170 26 4e d4 bc a0 49 21 3e 71 3e fc 3d 57 77 3e 3e
       -0.02591617 0.15750742 0.12316597 0.18600212
000180 b8 a4 23 bd aa e1 26 bd 1b 6f a1 bd da 34 bc bc
       -0.03995201 -0.040742554 -0.0788252 -0.02297442
000190 ae 9b 29 3d dd f3 39 bd 46 08 71 bd f7 63 d1 3d
       0.041408233 -0.04539858 -0.05884578 0.10224145
0001a0 59 2e 39 3d 48 a4 8e 3c 09 21 77 bd 2c 28 1b 3d
       0.045210216 0.01741232 -0.06033424 0.037880108
0001b0 33 ff 1c bd 1e dd dc bc 85 f2 92 3c ba e1 56 3d
       -0.038329314 -0.026960906 0.017937908 0.052461363
0001c0 fe c4 fc bc 94 4e 32 3d 6b 93 bc bd ef 65 b6 bd
       -0.030855652 0.04353197 -0.09207805 -0.08906161
0001d0 16 83 a7 bb d9 81 0f bd 32 8a 1e 3d ca 5c 83 bb
       -0.005112062 -0.03503594 0.038706012 -0.004008864
0001e0 c7 4b 7f bc 9a 87 5d bd f9 47 ae bd 41 bc 1f 3c
       -0.015582032 -0.054084398 -0.085098214 0.009749473
0001f0 e7 ea b4 3d b9 4a 8b 3d f2 e3 ea bb 23 00 45 bd
       0.088338666 0.068013616 -0.0071682865 -0.048095834
000200 6f b1 cf ba b3 1e 81 bc 49 e9 2f bc 79 e9 96 bd
       -0.0015845726 -0.015761709 -0.010736772 -0.0736875
000210 76 48 21 3d c4 1d bc bc 7f 52 7b bc 1d 9f 03 3e
       0.039375745 -0.022963412 -0.015339493 0.12853666
000220 35 71 73 3d e0 45 53 bd bd b3 36 bd 36 b3 d9 bc
       0.059434135 -0.05158031 -0.044605006 -0.026574712
000230 f3 da 1e bd ef 0b 70 bc 5b 2b ac bc bc e1 b9 bd
       -0.038783025 -0.014651283 -0.021016767 -0.090762585
000240 5c 11 29 bc 27 2c 70 bc e8 bb a5 3d ac 42 15 bc
       -0.01031908 -0.014658964 0.08092481 -0.009110134
000250 21 e5 33 bd 66 35 88 bd 36 e1 00 bc 44 0f 74 bd
       -0.043919686 -0.0665081 -0.0078661945 -0.05958487
000260 62 6a 48 bd 65 8e 49 bb 08 11 bb bd 3a a9 49 bd
       -0.04892958 -0.003075504 -0.09134108 -0.049233653
000270 e2 fd c1 3c 08 3e 5a 3d d7 80 d7 3d a1 a0 92 3d
       0.023680631 0.053281814 0.10522621 0.07159544
000280 54 65 a0 bc d2 fd ab bd f2 dd 69 3d a7 41 c1 bb
       -0.019579567 -0.08398022 0.05709643 -0.005897719
000290 81 70 ab 3d 9b ba c2 3d 08 09 26 bc dd ff 39 3e
       0.08371068 0.095082484 -0.010133989 0.1816401
0002a0 42 dc 9a 3b 96 8c 11 bd 70 da 6e 3d 19 9d 2c bd
       0.004725964 -0.035534464 0.058313787 -0.042142007
0002b0 3c a1 e3 bd ef 73 0b bd c5 31 b9 3d 39 aa d2 3c
       -0.111147374 -0.03404611 0.09042696 0.025715934
0002c0 ff 37 89 3c 8e eb 9e bc 94 87 96 3d 78 99 9c bd
       0.016750334 -0.01939943 0.07350078 -0.07646459
0002d0 9d 7b c3 3c f7 b4 96 bc 9a 6c cf bd 4f b9 06 bc
       0.023862654 -0.018396838 -0.10128136 -0.008222892
0002e0 c4 e8 02 bc 26 7d 01 bc 4c ec 9d bd d1 4e 94 bd
       -0.007990066 -0.007903373 -0.07711086 -0.072415955
0002f0 a6 77 e6 bc d8 8a 3a bd e4 ca 4c 3a 80 86 6d bd
       -0.028133225 -0.045542568 0.00078122155 -0.057989597
000300 f0 39 1c 3e d3 68 0f 3d 2b 06 8c 3d 89 02 c7 bd
       0.15256476 0.035012078 0.06837114 -0.097172804
000310 2f 61 b5 bd 2e 04 df bd 2d 8b 85 3d d5 fc 6f 3d
       -0.08856427 -0.10889469 0.06520686 0.05859073
000320 ae db 10 3c 62 24 fd bc 44 41 f2 3d 42 92 08 39
       0.008841438 -0.030901138 0.11828855 0.00013024456
000330 4d 20 31 bb 5d a5 c9 3c 79 3d 87 bd 7d 94 8d bd
       -0.002702731 0.024614984 -0.06603522 -0.069130875
000340 d8 11 89 bd ca e8 29 bd 18 74 ed bb 2f 47 c9 bc
       -0.066928566 -0.04148177 -0.0072465055 -0.024570076
000350 a8 03 97 bd 1b d7 51 bc 8d a0 5c bd f4 a7 ca 3c
       -0.07373744 -0.012807633 -0.05386405 0.02473829
000360 fb 33 40 bd 94 15 fc 3c 5e 4e 84 bc 0a ee e3 3d
       -0.046924572 0.030772008 -0.01615065 0.11129387
000370 c3 59 8a 3d 04 7a 47 bb df 6c 6a 3c 56 6c db 3c
       0.06755402 -0.0030437717 0.014308183 0.026785057
000380 a7 14 4e bc d7 80 a9 3d 13 d4 92 3c 7f f9 d2 3d
       -0.012578166 0.082765274 0.01792339 0.10301494
000390 86 81 65 bc a0 05 e7 bc 80 12 88 3d 3c d0 18 3d
       -0.014007932 -0.028200924 0.066441536 0.037307963
0003a0 a4 cb 60 3c 20 90 ce 3c 56 9f e3 3d 5e 08 c0 3d
       0.013720427 0.025215209 0.11114375 0.09376596
0003b0 b2 f0 16 bd ba 87 89 bd c4 89 75 bd e6 e4 b2 3d
       -0.03685064 -0.06715341 -0.059945837 0.08735065
0003c0 27 50 d5 bd 7c 7e 5b bd 7e 9e 0d bc 26 15 ff 3d
       -0.104156785 -0.05358742 -0.0086437445 0.124552056
0003d0 9e fd cb 3d a0 2b 47 3d 1f c7 4d bd 43 e6 9c 3d
       0.09960483 0.04862559 -0.050238725 0.076611064
0003e0 42 f9 87 3d 80 6c cf bd 3b 68 b4 bd 87 27 f1 bb
       0.06639339 -0.101281166 -0.08808943 -0.0073594484
0003f0 47 d8 e9 3c 4f d3 90 3d 49 59 67 3d 00 f8 5f 3d
       0.028545512 0.07071554 0.056481633 0.05467987

TCNnetwork.0.net.0.bias f4 [32]
000000 86 8a a7 bd d6 d7 37 3e e4 dc b3 bd 8b 00 1e 3e
       -0.08180718 0.17953429 -0.08782366 0.15429895
000010 28 4a 00 3d 9c ad 2f 3e 5d 30 f8 bd b2 fd 97 bd
       0.03132072 0.1715607 -0.121185996 -0.074214354
000020 42 ea 48 3d ad ad bf 3c 25 b0 bf bd b2 e4 05 be
       0.04905153 0.023398245 -0.09359769 -0.13075522
000030 df 95 3e bd 66 59 a2 3d a0 18 19 be 8c d1 30 be
       -0.046529647 0.07927208 -0.149508 -0.17267436
000040 77 94 0e 3c d3 cc a3 3d d6 92 be 3c 90 e0 57 bc
       0.008702389 0.079980515 0.023263376 -0.0131760985
000050 9a 75 e9 3d 3a 67 02 3e 2a be 54 bb 8e f7 1c 3d
       0.11399384 0.1273469 -0.003246198 0.038322024
000060 38 33 bf bd ef e9 94 3c 14 9d f2 bc 2d de 4a 3d
       -0.09335941 0.018177954 -0.029615916 0.04952829
000070 a0 9c 0f 3c 94 6d d1 bd 5a e6 0e 3e c1 63 18 3e
       0.00876537 -0.102259785 0.1395506 0.14881803

TCNnetwork.0.net.0.parametrizations.weight.original0 f4 [32, 1, 1]
000000 d3 f6 41 3f 34 43 16 3f 9f 8d f0 3e d2 c2 2a 3f
       0.7576725 0.58696294 0.46983048 0.6670352
000010 ea ce 24 3f 26 03 10 3f 81 4d 22 3f ba e8 16 3f
       0.64378226 0.56254804 0.6339951 0.5894886
000020 21 d1 3c 3f 54 e4 04 3f 16 48 16 3f e3 89 1f 3f
       0.73756605 0.519109 0.58703744 0.62319773
000030 e8 7b 11 3f 82 99 17 3f 80 70 31 3f 4b 6d 22 3f
       0.5682969 0.5921861 0.69312286 0.6344802
000040 c1 5f 21 3f 02 a3 13 3f a4 14 11 3f e9 2c 1e 3f
       0.63036734 0.57670605 0.5667212 0.6178728
000050 f5 a7 0f 3f 95 29 1a 3f 2f ef d8 3e aa ef 29 3f
       0.5611566 0.602197 0.42369983 0.66381323
000060 12 d0 f9 3e 55 25 30 3f c9 c9 21 3f ae 34 21 3f
       0.48791558 0.68806964 0.63198525 0.6297101
000070 26 a7 21 3f 9f 1c 08 3f b0 ce 0c 3f 97 70 3a 3f
       0.63145673 0.5316867 0.5500288 0.7282805

TCNnetwork.0.net.0.parametrizations.weight.original1 f4 [32, 7, 3]
000000 38 e7 59 be 98 1a f0 3c fd 65 29 be dc 57 d7 bd
       -0.21279609 0.029309556 -0.16542812 -0.10514805
000010 fc e9 f0 bc 0f 61 ad 3b a3 7d 36 be 9e 11 7a be
       -0.029408447 0.0052911113 -0.17821364 -0.24420783
000020 49 7b 4e be ad f3 87 be cd 0f 84 be 5b 5b ee bc
       -0.20164217 -0.26553097 -0.25793305 -0.029096296
000030 7c e1 9b 3d 97 00 df 3d 2c 6b d4 3b 17 38 1f 3e
       0.07611367 0.108887844 0.0064825024 0.1554874
000040 a5 a5 42 3e aa e9 06 3e db 33 12 bd d4 50 08 bc
       0.19008501 0.13175073 -0.035693984 -0.008320052
000050 aa 58 35 bd 13 eb ac 3d 43 88 e9 bc 1c be 1d 3e
       -0.04427401 0.08443274 -0.028507357 0.15404552
000060 7d d3 3c bd 15 01 30 3e ee 76 a7 3d 1a 35 60 bd
       -0.04610013 0.17187913 0.08176981 -0.05473814
000070 f6 42 21 be 99 67 0c 3d 7e a5 c3 bb b8 e3 02 be
       -0.157482 0.034278486 -0.005970656 -0.1278218
000080 22 6f d8 3d 8e 83 54 bd 20 68 69 be 4f 3a 0b be
       0.10568072 -0.051883273 -0.22793627 -0.13596462
000090 de 21 4e 3e fb b8 b9 3d 0e 06 21 be 65 ce 09 3e
       0.20130107 0.09068485 -0.15724966 0.1345764
0000a0 f8 de 09 bd da 05 7c be b5 b4 0a 3d 8a d6 92 bd
       -0.033659905 -0.24611607 0.033863742 -0.07169826
0000b0 cc ef a1 bd 92 92 c5 3b 1e 66 3e be 9a 87 a5 3b
       -0.07907066 0.0060294354 -0.18593642 0.0050515654
0000c0 39 ef ca 3d ea 51 cc 3c 16 9e d4 bc 17 e1 67 3d
       0.09908909 0.024941403 -0.025954287 0.056611147
0000d0 27 64 14 bd 7a 36 a3 bd 44 3c 12 3c 66 23 1a bc
       -0.036228325 -0.07969375 0.008925501 -0.009407854
0000e0 5e 09 18 3d ea 99 9b 3c 9d ea 96 3e 8c 79 84 3e
       0.03711831 0.01899429 0.2947587 0.25873983
0000f0 15 1d 77 bd e1 ef c5 3d b3 39 5c 3d 4f 93 34 3e
       -0.06033047 0.09664894 0.053765964 0.17634319
000100 16 f3 2c 3e e4 e4 d1 3d 37 fe 96 3d fa 48 ef 3b
       0.16889605 0.102487355 0.073727064 0.0073024007
000110 81 f8 e6 bd ba eb 05 be 05 2e 34 3e 32 60 9f 3d
       -0.11277867 -0.13078204 0.1759568 0.0778202
000120 58 11 53 be d1 26 f6 3c f4 ba d8 bd 93 ea 20 be
       -0.20612085 0.030047806 -0.105825335 -0.15714483
000130 36 31 6b 3e 73 60 5c 3d 25 15 69 3d b4 cb ea bc
       0.22967991 0.05380292 0.05690493 -0.028661586
000140 65 89 52 be 8d ae 33 3e ff 1f d1 bd c5 5f 76 be
       -0.20560224 0.17547055 -0.10211181 -0.2405997
000150 53 8f 34 3e 81 f3 9d bd 6a 5b be bd 8a ea 22 3e
       0.17632799 -0.0771246 -0.092947796 0.15909782
000160 6c 5f cd 3d 27 1c 1f be b6 fd cf bc f9 55 da bd
       0.10027966 -0.15538083 -0.025389533 -0.10660929
000170 19 2b 15 3e 87 78 84 be f3 40 46 be 70 3c 16 be
       0.14567222 -0.25873205 -0.19360714 -0.14671493
000180 c6 14 b4 bd e4 cc 5e 3e 41 65 92 bd e0 e4 87 3b
       -0.08793025 0.21757847 -0.07148219 0.004147157
000190 40 7e b8 3d 3b 59 b0 3c 22 dd ea 38 9f f5 17 bd
       0.09008455 0.021526923 0.00011199179 -0.037099477
0001a0 01 85 45 be dd 11 12 3e 9e 67 dc bd 59 d4 e0 3c
       -0.19289018 0.14264627 -0.10761951 0.027445005
0001b0 61 d4 20 3e 08 6f ae 3d 7a dc 26 be 87 63 c7 bc
       0.15706016 0.08517271 -0.16295043 -0.02433945
0001c0 3a 5f 91 3c d7 59 a7 3d 38 2a 41 3e 6e 02 60 3e
       0.017745603 0.081714325 0.18863761 0.21875927
0001d0 ea c4 fb 3c 29 9b 20 3e 66 58 b6 bd 54 df 15 be
       0.030733544 0.15684189 -0.089035794 -0.14635974
0001e0 b7 6a 0c be a7 b6 0c 3e 7d 51 35 3d 8d 12 95 3d
       -0.13712583 0.13741551 0.044267166 0.07278929
0001f0 41 b0 d7 bd 72 36 f5 bd 9e b1 78 bc 81 c2 81 b9
       -0.10531665 -0.11973275 -0.015179066 -0.00024749714
000200 46 cc 3f be 99 37 4d 3e ef d4 82 bd 98 58 f8 bc
       -0.18730268 0.2004074 -0.0638827 -0.030315682
000210 52 3c 03 be 6f 06 e4 3b 2b 86 c7 bd df f5 80 3e
       -0.12815979 0.0069587748 -0.097423874 0.25187585
000220 47 55 86 3e 6b 5c d7 3d d3 25 1e be f2 6a 95 3d
       0.26236936 0.10515674 -0.15444116 0.07295789
000230 a8 d8 23 3d c2 18 04 3e f0 32 4b be d6 7a 6d bd
       0.04000154 0.1290007 -0.1984365 -0.057978474
000240 1d 51 b0 3c 15 09 33 bb bd d2 cf 3c 60 dd 1e 3d
       0.021523053 -0.0027318646 0.025369043 0.03878534
000250 78 85 6f 3e ea 98 41 be 00 cb 20 be 0e 71 d8 3c
       0.23390758 -0.18905988 -0.15702438 0.026421096
000260 59 92 c8 bd 63 40 48 3c 9b b2 df bd 54 83 17 be
       -0.097935386 0.012222382 -0.10922738 -0.14796191
000270 57 95 b7 3d 2f 94 92 3b 91 b7 03 3e 73 7b c5 3d
       0.08964031 0.0044732313 0.12862994 0.09642687
000280 0b 9e 16 be 13 d2 bf 3d 40 2f 20 3d ef 4f b3 bd
       -0.14708726 0.0936624 0.03910756 -0.087554805
000290 f9 f2 32 be a6 70 db bd d1 be 4c 3e 58 b6 1a be
       -0.17475499 -0.10714845 0.19994666 -0.15108621
0002a0 e0 8e 27 be 2e df 10 be b7 0f 2a 3e 22 44 11 3c
       -0.16363096 -0.14147636 0.16607557 0.008866342
0002b0 fa ef 45 be 16 20 16 3e df 5c 44 be 48 b7 6e be
       -0.19329825 0.14660677 -0.19176053 -0.23312104
0002c0 bb 77 36 be 76 34 a6 3c 47 c1 37 be 90 43 30 be
       -0.17819111 0.020288687 -0.17944823 -0.17213273
0002d0 39 7f 8a bc 38 c4 91 bd 30 95 7c 3e 94 7d 92 3b
       -0.016906368 -0.07117504 0.24666286 0.0044705365
0002e0 4c e3 44 bd 4e 7f 53 3e 9f 18 51 be 11 82 b3 bd
       -0.04806833 0.20654032 -0.20419548 -0.087650426
0002f0 47 a4 55 3e 5f 12 19 be 72 83 f6 3d b2 08 05 be
       0.20863448 -0.14948414 0.1203679 -0.12991598
000300 4a 5d 34 be b7 da a1 bd 8a dd 23 be 06 16 e3 bc
       -0.17613712 -0.07903045 -0.16002479 -0.027720463
000310 5c fd b5 bd 32 f4 6f bd 67 c2 95 bd 1f bb c7 bd
       -0.08886215 -0.058582492 -0.0731247 -0.097524874
000320 42 78 e5 bd 96 d0 2f b7 ce d2 1c 3d 48 e7 5d bd
       -0.11204578 -1.0479378e-05 0.038286977 -0.054175645
000330 1e f5 da bd e1 e3 3b 3e aa 20 2c be fe 2b 56 3e
       -0.10691284 0.18348648 -0.16809335 0.20915219
000340 96 7a 9e 3d eb 0c 10 bd 69 13 56 be 9a 99 01 3d
       0.07738225 -0.03516857 -0.20905842 0.031640626
000350 34 65 49 be d3 0e 20 3e 0a b1 94 3c 62 4d 31 be
       -0.19667512 0.15630655 0.018150825 -0.17314675
000360 7b d1 55 3e 65 8f fd 3c f9 88 95 3d 4b 9b 09 bb
       0.20880692 0.030952165 0.07301516 -0.0020997103
000370 4d 50 4d 3e d4 03 c6 bd cc 75 2d be e2 ac ea 3d
       0.20050164 -0.09668699 -0.16939467 0.11458756
000380 46 e8 4e bd a2 5a 4b 3d 9f 36 21 be e0 ce d1 3d
       -0.050514482 0.04964698 -0.15743493 0.102445364
000390 e9 6e 4b be 52 ec 29 bc 25 a1 ad bd 48 66 2c be
       -0.19866528 -0.010371285 -0.084780015 -0.16835892
0003a0 61 0f d8 3d bb a4 bc bc f7 1a b6 3b db 39 81 be
       0.10549808 -0.023027768 0.0055574137 -0.25239453
0003b0 b3 18 22 3e 4e 0f 3d be 25 c0 b3 bd 1d b2 dc bd
       0.15829735 -0.1846287 -0.08776883 -0.1077616
0003c0 b2 71 57 be 18 9a 3e 3d 32 1a d3 bd 7b 3d bc 3d
       -0.21039465 0.046533674 -0.10307731 0.09191414
0003d0 48 d2 82 3d 96 fb 46 3e e5 fe 7d bd 11 db 8d bd
       0.06387764 0.1943191 -0.062010664 -0.06926549
0003e0 5c 9e 50 be 72 aa 39 bc 63 a0 6b 3e b9 f7 06 be
       -0.2037291 -0.011332141 0.23010401 -0.13180436
0003f0 17 5b 34 be c7 df 10 3e 1d e8 ca 3d 27 30 36 3e
       -0.17612873 0.14147864 0.09907553 0.17791806

TCNnetwork.0.net.4.bias f4 [32]
000000 10 df 72 3d ac f9 2b 3d 79 5a b7 3c 27 98 a3 bd
       0.05929476 0.041986153 0.022382008 -0.07988005
000010 0d 8e 5a 3d b9 21 ef bc a1 71 ff 3c 24 ef 82 3d
       0.053358126 -0.029190885 0.031182112 0.06393269
000020 c2 16 7d bd 78 39 8f 3b f0 0a 8a bc 68 34 99 bd
       -0.06178928 0.0043708645 -0.016850919 -0.07480699
000030 63 e4 99 bd 11 94 7a bd 4c 8f 1c bd 3d 1b 41 bd
       -0.075142644 -0.061176363 -0.038222596 -0.047145117
000040 0c 30 85 3d 3c 3d 25 3d 4a e2 9f bd f3 ea 45 3c
       0.06503305 0.0403416 -0.07806833 0.012079942
000050 21 b0 32 bd ae c7 1a bc 68 3d 25 bc 63 61 40 3d
       -0.043625 -0.009447021 -0.010085441 0.046967875
000060 2b 94 dd 3b 3d 0d 47 bd 2b ab 97 3b 4f c1 08 3d
       0.0067620478 -0.04859661 0.004628559 0.03338748
000070 54 b5 9a bd f4 8d 11 bd cc 39 c0 bc 75 93 46 3c
       -0.07554117 -0.035535768 -0.02346506 0.012120117

TCNnetwork.0.net.4.parametrizations.weight.original0 f4 [32, 1, 1]
000000 6b c9 13 3f 15 5b 09 3f 33 13 13 3f 1a ad 05 3f
       0.57729214 0.53654605 0.5745117 0.5221726
000010 dc 9f 0e 3f 8e a5 0c 3f d1 fe 0f 3f 20 0c 0e 3f
       0.55712676 0.54940116 0.56248194 0.5548725
000020 e5 35 17 3f 64 3b 27 3f b0 1d 15 3f d4 82 12 3f
       0.5906661 0.65325 0.58248425 0.5723088
000030 8d e8 0e 3f 15 cd 16 3f fd 91 1c 3f b1 bf 22 3f
       0.55823594 0.5890668 0.6116026 0.6357375
000040 20 15 02 3f 32 a1 18 3f fd 01 14 3f e7 ca 16 3f
       0.50813484 0.59620965 0.57815534 0.58903354
000050 97 cd 13 3f 85 e0 14 3f 5b e8 1f 3f 37 02 0b 3f
       0.5773558 0.5815509 0.6246392 0.54300255
000060 e4 b1 0d 3f 0e 3b 05 3f 97 62 1a 3f a8 92 15 3f
       0.55349565 0.52043235 0.60306686 0.58426905
000070 98 41 17 3f 67 49 27 3f c9 01 15 3f d2 ea 11 3f
       0.59084463 0.6534638 0.5820585 0.5699893

TCNnetwork.0.net.4.parametrizations.weight.original1 f4 [32, 32, 3]
000000 b3 25 62 3a eb 29 c4 3d 97 0b b6 3d 01 16 f2 bd
       0.00086268334 0.09578308 0.08888929 -0.11820603
000010 1c 77 10 bd 2d 9e a4 bc b9 b0 15 bc e9 00 61 bd
       -0.03526984 -0.020094955 -0.009136372 -0.05493251
000020 f1 e5 02 bd f8 14 b4 bb 2f 27 47 bd e2 aa 13 3e
       -0.03195757 -0.0054956637 -0.048621353 0.14420655
000030 64 7c fb 3d 0c a9 e4 3d 3f 25 f9 3b 0d 6f a8 bd
       0.12279585 0.11165056 0.007603317 -0.08224306
000040 bf 8b 5b bc 42 50 10 bd de 8f 9f bd 68 88 74 3d
       -0.013400017 -0.03523279 -0.07791112 0.0597004
000050 ea 0a 56 3d af 19 5c bc f8 63 c3 bc 1b 5d 5e 3d
       0.052256502 -0.013433858 -0.02385138 0.05428801
000060 7c ba 8c 3d 32 2a f8 bc d4 a8 0c 3e 49 12 97 3d
       0.068715066 -0.030293558 0.13736278 0.073765345
000070 31 81 c2 3d 2d 99 b5 3d 0c fe 90 3b ff 07 40 3d
       0.094972976 0.088671066 0.004424816 0.046882626
000080 58 ce b8 bb a0 12 f9 3c 30 eb 76 3d 47 78 30 bd
       -0.0056398325 0.030404389 0.060282886 -0.043083455
000090 44 d6 51 3d b4 d1 14 3d 1e ff 2a b9 5c 76 13 3c
       0.05122973 0.0363328 -0.00016307502 0.009000387
0000a0 ed 77 48 bd 32 d5 22 3d 00 f7 12 3d f7 70 a1 3d
       -0.048942495 0.0397541 0.03588009 0.078828745
0000b0 af a5 16 3e 4c 61 ce bc bd 45 2e 3c be 49 75 3d
       0.14711641 -0.02519288 0.010636744 0.05988478
0000c0 2e 1d e3 bc 28 da aa bd c0 b7 9c ba 18 be b9 3d
       -0.027723875 -0.08342391 -0.0011956617 0.09069461
0000d0 56 a8 95 bd f5 c9 90 3d 47 2a 6b 3d c0 2f 9a bd
       -0.07307498 0.0706977 0.057413366 -0.07528639
0000e0 8a 2a fc bb 4b ab a2 bd 8d 3c 5a 3c 47 51 0d 3d
       -0.0076955007 -0.07942828 0.0133201005 0.03450134
0000f0 3f 77 80 bd 5b 29 01 bc f0 4b b4 3d e7 71 0b 3c
       -0.062727444 -0.007883395 0.088035464 0.008511043
000100 76 b3 ac bc 6b ee 55 bd c1 5b 09 bc a5 fa a1 3d
       -0.021081667 -0.052229326 -0.008383692 0.07909135
000110 69 3e 4e 3d dc e5 ca bc 9a 85 a1 bc 36 d4 f3 bc
       0.050352488 -0.024767809 -0.019717027 -0.029764276
000120 4c cb 0d bd 10 04 31 bd 9a 04 98 3d ee 1e c4 3d
       -0.034617707 -0.043216765 0.07422753 0.09576212
000130 b8 09 57 3d 73 81 38 3e 21 3b 2b bd 1b db 0a bc
       0.052499503 0.18018131 -0.041804437 -0.00847509
000140 cc a9 b1 bd 98 16 57 bd a4 93 32 3d b3 23 a6 3a
       -0.08674964 -0.05251178 0.043597832 0.0012675434
000150 de 02 18 3c 2f c7 9e 3d 1b 1c 66 3d 28 6d 94 bd
       0.009278027 0.07752835 0.056179147 -0.072473824
000160 98 74 5a bd 7a 9f 1b 3c c4 0e b1 bd ee d8 96 bd
       -0.05333385 0.009498471 -0.086453944 -0.07365595
000170 26 4e d4 bc a0 49 21 3e 71 3e fc 3d 57 77 3e 3e
       -0.02591617 0.15750742 0.12316597 0.18600212
000180 b8 a4 23 bd aa e1 26 bd 1b 6f a1 bd da 34 bc bc
       -0.03995201 -0.040742554 -0.0788252 -0.02297442
000190 ae 9b 29 3d dd f3 39 bd 46 08 71 bd f7 63 d1 3d
       0.041408233 -0.04539858 -0.05884578 0.10224145
0001a0 59 2e 39 3d 48 a4 8e 3c 09 21 77 bd 2c 28 1b 3d
       0.045210216 0.01741232 -0.06033424 0.037880108
0001b0 33 ff 1c bd 1e dd dc bc 85 f2 92 3c ba e1 56 3d
       -0.038329314 -0.026960906 0.017937908 0.052461363
0001c0 fe c4 fc bc 94 4e 32 3d 6b 93 bc bd ef 65 b6 bd
       -0.030855652 0.04353197 -0.09207805 -0.08906161
0001d0 16 83 a7 bb d9 81 0f bd 32 8a 1e 3d ca 5c 83 bb
       -0.005112062 -0.03503594 0.038706012 -0.004008864
0001e0 c7 4b 7f bc 9a 87 5d bd f9 47 ae bd 41 bc 1f 3c
       -0.015582032 -0.054084398 -0.085098214 0.009749473
0001f0 e7 ea b4 3d b9 4a 8b 3d f2 e3 ea bb 23 00 45 bd
       0.088338666 0.068013616 -0.0071682865 -0.048095834
000200 6f b1 cf ba b3 1e 81 bc 49 e9 2f bc 79 e9 96 bd
       -0.0015845726 -0.015761709 -0.010736772 -0.0736875
000210 76 48 21 3d c4 1d bc bc 7f 52 7b bc 1d 9f 03 3e
       0.039375745 -0.022963412 -0.015339493 0.12853666
000220 35 71 73 3d e0 45 53 bd bd b3 36 bd 36 b3 d9 bc
       0.059434135 -0.05158031 -0.044605006 -0.026574712
000230 f3 da 1e bd ef 0b 70 bc 5b 2b ac bc bc e1 b9 bd
       -0.038783025 -0.014651283 -0.021016767 -0.090762585
000240 5c 11 29 bc 27 2c 70 bc e8 bb a5 3d ac 42 15 bc
       -0.01031908 -0.014658964 0.08092481 -0.009110134
000250 21 e5 33 bd 66 35 88 bd 36 e1 00 bc 44 0f 74 bd
       -0.043919686 -0.0665081 -0.0078661945 -0.05958487
000260 62 6a 48 bd 65 8e 49 bb 08 11 bb bd 3a a9 49 bd
       -0.04892958 -0.003075504 -0.09134108 -0.049233653
000270 e2 fd c1 3c 08 3e 5a 3d d7 80 d7 3d a1 a0 92 3d
       0.023680631 0.053281814 0.10522621 0.07159544
000280 54 65 a0 bc d2 fd ab bd f2 dd 69 3d a7 41 c1 bb
       -0.019579567 -0.08398022 0.05709643 -0.005897719
000290 81 70 ab 3d 9b ba c2 3d 08 09 26 bc dd ff 39 3e
       0.08371068 0.095082484 -0.010133989 0.1816401
0002a0 42 dc 9a 3b 96 8c 11 bd 70 da 6e 3d 19 9d 2c bd
       0.004725964 -0.035534464 0.058313787 -0.042142007
0002b0 3c a1 e3 bd ef 73 0b bd c5 31 b9 3d 39 aa d2 3c
       -0.111147374 -0.03404611 0.09042696 0.025715934
0002c0 ff 37 89 3c 8e eb 9e bc 94 87 96 3d 78 99 9c bd
       0.016750334 -0.01939943 0.07350078 -0.07646459
0002d0 9d 7b c3 3c f7 b4 96 bc 9a 6c cf bd 4f b9 06 bc
       0.023862654 -0.018396838 -0.10128136 -0.008222892
0002e0 c4 e8 02 bc 26 7d 01 bc 4c ec 9d bd d1 4e 94 bd
       -0.007990066 -0.007903373 -0.07711086 -0.072415955
0002f0 a6 77 e6 bc d8 8a 3a bd e4 ca 4c 3a 80 86 6d bd
       -0.028133225 -0.045542568 0.00078122155 -0.057989597
000300 f0 39 1c 3e d3 68 0f 3d 2b 06 8c 3d 89 02 c7 bd
       0.15256476 0.035012078 0.06837114 -0.097172804
000310 2f 61 b5 bd 2e 04 df bd 2d 8b 85 3d d5 fc 6f 3d
       -0.08856427 -0.10889469 0.06520686 0.05859073
000320 ae db 10 3c 62 24 fd bc 44 41 f2 3d 42 92 08 39
       0.008841438 -0.030901138 0.11828855 0.00013024456
000330 4d 20 31 bb 5d a5 c9 3c 79 3d 87 bd 7d 94 8d bd
       -0.002702731 0.024614984 -0.06603522 -0.069130875
000340 d8 11 89 bd ca e8 29 bd 18 74 ed bb 2f 47 c9 bc
       -0.066928566 -0.04148177 -0.0072465055 -0.024570076
000350 a8 03 97 bd 1b d7 51 bc 8d a0 5c bd f4 a7 ca 3c
       -0.07373744 -0.012807633 -0.05386405 0.02473829
000360 fb 33 40 bd 94 15 fc 3c 5e 4e 84 bc 0a ee e3 3d
       -0.046924572 0.030772008 -0.01615065 0.11129387
000370 c3 59 8a 3d 04 7a 47 bb df 6c 6a 3c 56 6c db 3c
       0.06755402 -0.0030437717 0.014308183 0.026785057
000380 a7 14 4e bc d7 80 a9 3d 13 d4 92 3c 7f f9 d2 3d
       -0.012578166 0.082765274 0.01792339 0.10301494
000390 86 81 65 bc a0 05 e7 bc 80 12 88 3d 3c d0 18 3d
       -0.014007932 -0.028200924 0.066441536 0.037307963
0003a0 a4 cb 60 3c 20 90 ce 3c 56 9f e3 3d 5e 08 c0 3d
       0.013720427 0.025215209 0.11114375 0.09376596
0003b0 b2 f0 16 bd ba 87 89 bd c4 89 75 bd e6 e4 b2 3d
       -0.03685064 -0.06715341 -0.059945837 0.08735065
0003c0 27 50 d5 bd 7c 7e 5b bd 7e 9e 0d bc 26 15 ff 3d
       -0.104156785 -0.05358742 -0.0086437445 0.124552056
0003d0 9e fd cb 3d a0 2b 47 3d 1f c7 4d bd 43 e6 9c 3d
       0.09960483 0.04862559 -0.050238725 0.076611064
0003e0 42 f9 87 3d 80 6c cf bd 3b 68 b4 bd 87 27 f1 bb
       0.06639339 -0.101281166 -0.08808943 -0.0073594484
0003f0 47 d8 e9 3c 4f d3 90 3d 49 59 67 3d 00 f8 5f 3d
       0.028545512 0.07071554 0.056481633 0.05467987

TCNnetwork.0.downsample.weight f4 [32, 7, 1]
000000 a9 ca 70 3c a3 75 46 bd 3a 2d 57 3c b7 82 e0 bd
       0.014696755 -0.04845203 0.013133341 -0.10962432
000010 60 1c 5d 3d 4b 1f 9a 3c 2d 31 6a bc 15 f0 c3 bb
       0.05398214 0.01881375 -0.014293951 -0.0059795477
000020 c4 81 b7 bc 68 32 79 bb 5b 66 28 bd 27 2d b9 bb
       -0.022400744 -0.003802443 -0.04111324 -0.0056511345
000030 48 04 99 3d ac 78 92 3c 14 2e 4b 3a 58 c1 d3 bd
       0.0747152 0.017879806 0.00077507016 -0.10339612
000040 46 f7 ed bb 53 96 0f be 91 cf 4a 3d 62 7c 37 3b
       -0.0072621433 -0.14022188 0.049514357 0.0027997722
000050 b7 f0 48 bd da 48 50 bc f1 5e 8c bc a2 ea 20 bc
       -0.04905769 -0.012712682 -0.017135115 -0.009821566
000060 1e 0a 3c bc 48 3a a4 bc 5c 32 e0 bc 47 30 1a bd
       -0.0114770215 -0.020047322 -0.027367763 -0.037643697
000070 5c 16 95 bc 46 34 8a bc 81 3a 26 3b ca b6 c6 bc
       -0.018199138 -0.016870629 0.002536446 -0.024257082
000080 46 ff 8d bb 0e 08 b2 3c e9 c3 45 3b d9 79 8c bc
       -0.0043334095 0.021732356 0.0030176586 -0.017147945
000090 bf a6 1c 3c 1b 9f 0b bd 69 40 90 3b 49 12 52 3c
       0.00956124 -0.03408728 0.0044022095 0.012821742
0000a0 85 ee 13 bc da 90 82 bc 13 a3 17 3c ec 92 2f bd
       -0.009029035 -0.015938211 0.0092551885 -0.042864725
0000b0 63 61 16 3b b4 54 1e bc ff 82 1d bd 6b d0 9f bd
       0.002294623 -0.0096637495 -0.038455006 -0.078034244
0000c0 9e 7a 5a 3b 29 17 ca bc a3 27 d0 bc a3 03 05 bd
       0.0033337246 -0.024669247 -0.025409525 -0.03247417
0000d0 01 60 22 bd 1e ca 03 3c e9 fd 27 3c 24 88 f6 bc
       -0.039642338 0.008043794 0.010253408 -0.030094214
0000e0 14 cf 01 3d 5d 11 6c 3c e1 31 90 3c 9e 02 33 3d
       0.031691626 0.014408437 0.01760191 0.043703668
0000f0 09 fe 22 3c 1e bd 74 bd 2e 04 a8 bc eb 85 7b bc
       0.009948262 -0.05975067 -0.020509806 -0.015351753
000100 c8 c8 8c bc 5c ca 19 bb 00 2b 38 bd 0b 20 5b 3c
       -0.017185584 -0.0023466563 -0.044962883 0.013374339
000110 14 56 24 3d 34 ce 76 bb 70 16 d1 b9 20 0f 45 3c
       0.040121153 -0.0037659528 -0.00039880304 0.012027532
000120 ef 37 02 bd 6a 32 f3 3c 49 28 19 3d 0c 0e 34 bc
       -0.031791624 0.029687125 0.037391935 -0.010989677
000130 b7 a0 20 bd 3b ad 9f bc b9 4a 5f bd af 0a 14 bb
       -0.03921577 -0.019491782 -0.05451462 -0.0022589376
000140 6c d0 65 bc 97 80 b8 bc a9 67 03 3d ac 80 0c 3d
       -0.014026742 -0.022522254 0.03208128 0.0343024
000150 dc 00 20 bd b3 08 1f bd 64 9a bf bc b3 3f 07 bd
       -0.03906332 -0.038826656 -0.023389049 -0.033019733
000160 8e 04 05 bb 08 f3 37 3b 5b 54 05 bd 01 b8 29 b9
       -0.0020296904 0.0028068442 -0.03255115 -0.00016185643
000170 16 54 b3 bc 32 18 a6 bc 0e 18 79 bc 48 aa 03 3d
       -0.021890681 -0.02027521 -0.015203489 0.032144815
000180 f2 ad 3d bc 1c b5 03 bd 5f a0 82 bc a1 0f 17 3d
       -0.011577116 -0.03215514 -0.015945612 0.03688014
000190 0a e0 36 bc 8c 9f 10 3d ff 2a 0e 3d c7 fc 03 bd
       -0.0111618135 0.035308406 0.034708973 -0.03222349
0001a0 a2 e2 b0 bc a3 2d 4e 3b 5f aa 06 bd 67 0e 15 bb
       -0.021592442 0.0031460307 -0.032877322 -0.002274418
0001b0 d3 ce 48 bd 7c 26 cc 3b 12 05 0d 3d d5 b0 47 bc
       -0.049025368 0.0062301736 0.034428664 -0.012188156
0001c0 dd 03 d7 bc d8 f7 95 bc a9 fb 09 bd 7a 30 6c 3a
       -0.02624696 -0.018306658 -0.033687267 0.0009009909
0001d0 cc 33 72 bc f4 36 dd bb 2e 61 9d bc 13 7f bd bc
       -0.014782857 -0.0067509357 -0.019211378 -0.023131883
0001e0 6d 60 f6 bc 01 fd aa bc 38 c3 0d bd 69 7a 50 3c
       -0.030075276 -0.020872595 -0.034610003 0.012724497
0001f0 a0 81 cd 3c f3 40 34 bc 8f f2 c0 bc 7f 5a 57 bd
       0.025086224 -0.011001813 -0.023553161 -0.05257654
000200 85 6c e6 3b 5a 2b db bb 51 5f 14 bd 7b d9 c8 bc
       0.0070319795 -0.0066885175 -0.036223713 -0.024517765
000210 d9 2b e5 3b d4 54 f1 bb d7 90 bd bb 20 40 b2 3a
       0.0069937524 -0.0073648486 -0.0057850885 0.0013599433
000220 08 c5 c3 bc 54 f6 64 bb 7f ae d6 3c 9c a0 9f 3c
       -0.023897663 -0.0034936862 0.026206253 0.019485764
000230 ca 08 35 bb f9 1e 12 bd 4a b9 89 3c b3 d1 72 bc
       -0.0027623647 -0.03567407 0.016811986 -0.014820504
000240 f0 c1 eb 3b f6 b9 92 3c 0a 2d c4 3c 1e a3 80 3c
       0.00719475 0.017910939 0.023947258 0.01570278
000250 38 3c 6d bd 2d 8b 2a ba 97 e3 85 bd 0b 8d 94 3c
       -0.057918757 -0.0006505724 -0.0653755 0.01813366
000260 6d 5a 74 3b fd 2b 06 3b f8 d6 00 3b 9a 96 d8 bc
       0.0037285343 0.0020472996 0.0019659381 -0.026439
000270 95 53 19 b9 ec 70 e8 bc 06 32 4f bd b9 e7 c1 bc
       -0.00014622354 -0.028374158 -0.050584815 -0.023670064
000280 1a 50 94 b8 81 d5 5a 3c 1d a6 1c 3d ee b1 b7 bc
       -7.07211e-05 0.013356567 0.038244355 -0.02242371
000290 ca 10 bb 3c 15 86 59 3d f4 c4 19 bd 70 18 3b bc
       0.022835154 0.053106386 -0.037541345 -0.011419401
0002a0 16 17 ee 3b ef 67 38 3d 91 18 b8 3c 49 56 97 3d
       0.0072659357 0.045020994 0.022472652 0.073895045
0002b0 92 5e 78 bc 52 9f 54 bd ae f9 7d 3c 75 47 11 bc
       -0.015159266 -0.051909752 0.015501423 -0.008867134
0002c0 44 67 54 3b 42 ef 75 bc 03 93 40 3c 27 b9 e1 bb
       0.0032410184 -0.015010657 0.0117538 -0.006888527
0002d0 87 9c f6 39 5d 79 10 bc e7 39 0b 3c 40 4c 0e 3d
       0.00047037398 -0.008817998 0.008497692 0.034740686
0002e0 7e 45 86 3a fc d7 43 3d 32 34 d6 3c 8c b1 39 bd
       0.0010244099 0.0478134 0.026147936 -0.045335338
0002f0 e3 c2 e0 bc cb 0e ed bc d4 a0 23 bb af 6a 57 bb
       -0.02743668 -0.028937718 -0.0024967687 -0.0032869985
000300 76 c6 c6 bb 64 02 0a 3c 24 86 f3 ba 8d a2 95 bc
       -0.006066139 0.0084234215 -0.0018579406 -0.018265987
000310 31 df 87 bc 8f f6 b1 bc 07 52 a8 bb 9b 71 14 bb
       -0.016585918 -0.021724014 -0.0051367315 -0.0022650722
000320 11 0e 43 bd 6e 24 13 bd dd 79 63 3c bf 98 3f 39
       -0.047620837 -0.035923414 0.013884035 0.00018272082
000330 63 16 a3 bb 6f a1 9e bc bd a6 80 bc 72 c7 eb 3b
       -0.004977034 -0.019364087 -0.015704507 0.0071954066
000340 05 44 9b 3c 19 ba 30 bc 2e d1 b5 bc eb 86 b2 bc
       0.018953333 -0.010786557 -0.022194471 -0.02179285
000350 c7 af f7 bc ad 01 71 bd 42 48 31 3b 5c e3 46 3d
       -0.030235184 -0.05883949 0.0027051126 0.04855667
000360 ec 94 ce ba 7b 90 60 bc 83 5a 34 bc 4e 7f 98 bc
       -0.0015760935 -0.013706322 -0.011007908 -0.018615391
000370 7a dd 09 3c 74 09 4a 3c 1e e7 0a bd 61 cb c6 bc
       0.0084146205 0.012331355 -0.033911817 -0.0242669

TCNnetwork.0.downsample.bias f4 [32]
000000 28 e5 9f be cd 53 af be 79 00 9e be c1 84 50 3e
       -0.3122952 -0.34243622 -0.30859736 0.20363142
000010 bc 35 79 bd ed 4b b9 3e fa 04 aa be 8d 3c 4c 3e
       -0.06084226 0.3619074 -0.33206922 0.19944973
000020 5d 43 8f 3d d7 fc 11 3e 48 43 9b 3e 1c 56 47 bd
       0.069952704 0.14256607 0.3032477 -0.048666105
000030 d5 36 87 3e 52 05 70 3e 92 ca 07 3e 32 2c 64 3d
       0.2640902 0.2343953 0.13260868 0.05570621
000040 23 f8 ac 3d ad 8e 93 3e 4e 5a e3 bd a1 20 28 be
       0.08445766 0.2881979 -0.111012086 -0.16418697
000050 ee ab 63 be ad b3 97 be 58 70 33 bd 55 9e 8c 3e
       -0.22233555 -0.2962927 -0.04380831 0.27464548
000060 8b d3 66 bd 03 ae 9d be 65 84 d4 3d 1b d4 7e be
       -0.056354087 -0.30796823 0.10376815 -0.248856
000070 19 87 f1 bd 2e e5 0b bd 2e 72 88 3d 72 14 54 3e
       -0.11793346 -0.03415411 0.06662403 0.20710924

TCNnetwork.1.fc1.weight f4 [2, 32]
000000 58 3c b4 bc 04 99 04 3d 8a 35 ef bd e6 40 c5 3d
       -0.02200143 0.03237249 -0.11680134 0.09631519
000010 a6 22 16 3e ad 73 1f be 55 e2 bb 3c f8 18 8b bb
       0.14661655 -0.1557147 0.022935072 -0.00424492
000020 cc dd b8 b9 dd 37 11 3d ea c6 8c bd 91 4a 09 be
       -0.00035260466 0.035453666 -0.06873877 -0.13407351
000030 ea 2f b8 bd b0 71 2a be de 9d 91 bd de e9 e6 bc
       -0.08993514 -0.16644931 -0.07110189 -0.028187688
000040 af b7 d1 3d 6b 7e 2a be 0c e2 84 3d 3f 85 03 be
       0.10240113 -0.16649787 0.064884275 -0.12843798
000050 fe 1b 29 be 08 6b 25 3e 18 0d 6f 3c 0c 48 1b be
       -0.16514584 0.1615411 0.014590524 -0.15164202
000060 8a aa 88 bd bc d5 39 3d 71 c0 37 be 6f 15 a0 3d
       -0.06673153 0.04536985 -0.17944504 0.07816588
000070 3f a3 b0 bd eb 81 b3 3d 6e b4 ff bd 75 f5 65 bd
       -0.08624887 0.08765014 -0.12485586 -0.05614229
000080 36 73 e6 3d 82 03 01 3c 1a bf 2a 3e 16 bc 9a 3c
       0.112524435 0.0078743715 0.16674462 0.018888514
000090 28 1b d2 bd b3 59 1e bc 46 8e 08 bd 58 15 bf 3d
       -0.10259086 -0.009664941 -0.033338808 0.09330243
0000a0 62 32 1d be 7d 73 44 bb 0d c9 bc bd b1 bb 02 3e
       -0.15351251 -0.0029976063 -0.09218035 0.12766911
0000b0 d6 5d 26 3d 0a 1b 43 bd e8 1c 32 3d f1 11 02 3e
       0.040616833 -0.04763321 0.0434846 0.12702157
0000c0 22 f2 64 bb da 47 ad 3d 80 fa 4b 3d 4c 8c 1d be
       -0.0034934361 0.0846097 0.049799442 -0.1538555
0000d0 11 05 ff bd 28 10 f1 bc 06 dd 64 bc b1 ff ba 3d
       -0.12452138 -0.02942665 -0.013968712 0.091308005
0000e0 a8 59 dc 3d b7 1e e6 3d a8 a1 1a 3e 32 ad b5 3d
       0.10759288 0.11236327 0.1510073 0.08870925
0000f0 3a 05 2a 3c 63 dd 4a 3e 39 9e 39 3e 67 f0 08 be
       0.010377223 0.19811015 0.18126763 -0.13372956

TCNnetwork.1.fc1.bias f4 [2]
000000 af e1 22 3e dc aa 00 be
       0.15906404 -0.12565178

TCNnetwork.1.fc2.weight f4 [32, 2]
000000 98 fc e1 3e db e7 c1 3e 44 d7 8b 3e b8 52 a0 be
       0.44138026 0.37872204 0.27312672 -0.3131311
000010 a0 58 1d 3e 5c 33 15 bf 86 71 06 3e f8 02 43 3e
       0.15365839 -0.58281493 0.13129243 0.19044101
000020 ac 9c b3 3e b6 59 27 bf 84 f7 1c bf 82 45 ec bd
       0.3508047 -0.65371263 -0.6131518 -0.11536695
000030 a4 da ef be 85 7d 68 be ab 70 b3 3e 80 37 c6 3d
       -0.46846497 -0.22704132 0.35046896 0.096785545
000040 f3 ae 2c 3f 90 7d 66 3e 1c f9 da bc f7 78 10 3f
       0.6745445 0.22508836 -0.026730113 0.5643458
000050 1b 96 64 3e 09 f2 4f be e3 88 e5 3e 3a 0e f4 3e
       0.22322886 -0.20307173 0.44831 0.47667104
000060 32 2f 34 3f 14 a6 70 be 61 3f 1f be 2a 53 69 be
       0.70384514 -0.23500854 -0.15551521 -0.22785631
000070 ad f5 33 bf 7f 2f 2a be 3f 4a 0d 3e 8f d1 ee 3e
       -0.70296746 -0.16619681 0.13797854 0.46644256
000080 a5 50 b5 3e 84 ee fc 3e 2d 40 84 3e 71 ca 00 3f
       0.3541309 0.49400723 0.25830212 0.503089
000090 a1 bd f0 be 5a 28 21 bf 95 fa e6 be c6 f4 0c bf
       -0.47019675 -0.62952197 -0.45113054 -0.55060995
0000a0 2a f2 71 3d 35 82 18 3f 06 cc 91 be 13 67 2c 3f
       0.059068836 0.5957368 -0.2847597 0.6734478
0000b0 e5 e5 a5 be 8b b3 81 be eb d2 b5 3e 81 c4 03 be
       -0.32401958 -0.25332293 0.3551248 -0.12867929
0000c0 18 db e8 be b1 6b 09 3e a7 98 9e 3e f1 a9 0b bf
       -0.45479655 0.13419987 0.3097584 -0.54556185
0000d0 9f 1f ce 3e 42 8f 62 be 37 bd f0 3e 99 14 e3 be
       0.402585 -0.22124961 0.4701936 -0.44351652
0000e0 03 2f 29 3d bf ad 16 bf 6e 60 05 be 8f fa 10 bf
       0.0413046 -0.58858865 -0.13025066 -0.5663232
0000f0 33 ec cd 3e 94 3e 7a 3e f7 11 20 3d 76 f6 09 3d
       0.40219268 0.24437934 0.039079633 0.03368231

TCNnetwork.1.fc2.bias f4 [32]
000000 d0 dc bf bd af bd ad 3d f7 d9 bd 3e 5d 76 03 3f
       -0.093682885 0.08483445 0.37080356 0.51352483
000010 ed a4 7f 3e 38 7f fb 3e c3 49 e2 3e c3 42 d6 be
       0.24965258 0.49120498 0.441969 -0.4184781
000020 51 b1 00 3e ea 1c 97 3e 75 bd 5d 3e ae 3e 35 3f
       0.12567641 0.29514247 0.21654303 0.70798767
000030 cf 74 36 bf 4a e6 33 3e d5 be 12 3e 7b f0 7b 3e
       -0.71271986 0.17568317 0.14330609 0.24603455
000040 46 8d 76 bd e3 8a 2e bf 3d 69 a4 3e e2 ef e3 3e
       -0.060193323 -0.68180674 0.3211154 0.44518954
000050 ae 7e 76 be d9 0c 00 3f 2c ef 0c 3f 92 3e c2 bd
       -0.24071762 0.50019604 0.5505245 -0.094845906
000060 9d f8 e1 3e cf 69 f4 3e f3 cd 46 be 7b 18 05 bc
       0.4413499 0.47736976 -0.19414501 -0.008123512
000070 10 01 d1 3e bf e7 d3 bc 64 f4 c3 3e eb 84 0e 3b
       0.40821123 -0.025867341 0.38272393 0.0021746706

TCNnetwork.2.conv1.bias f4 [64]
000000 a4 34 64 3b d0 3d dc bc 23 ed 58 bd 75 24 81 bd
       0.0034821415 -0.026884943 -0.052960526 -0.06305782
000010 0f 8a 5d 3d f9 85 bd bd 42 92 c1 3c 48 0c 2b bd
       0.05408674 -0.09254069 0.023629311 -0.04175976
000020 81 fe 32 3c c9 90 6c bc e0 b9 05 3d 16 14 9f 3b
       0.010924936 -0.014438816 0.032647967 0.0048546894
000030 f5 a1 cd bd af 73 30 3d 2a 49 50 3c 10 52 f3 3c
       -0.100406565 0.043079074 0.012712756 0.029702216
000040 64 d9 ac 3d 7a af 1d bd fe 57 a0 3d 0f d2 2f 3d
       0.084399015 -0.038497426 0.07829283 0.042924937
000050 6f 46 d3 bd 43 5a 03 bd 39 5e d7 bd 20 2a b7 3b
       -0.103161685 -0.032068502 -0.105160184 0.0055897385
000060 d5 d5 b9 bd f6 48 91 3d 50 43 aa bc 47 44 ee bb
       -0.09073988 0.07093994 -0.02078405 -0.007271323
000070 e9 c2 17 bd 8e 82 48 3d af 5b 22 3d 3d dc b5 bd
       -0.037051115 0.04895263 0.039638218 -0.08879898
000080 f9 0a b7 b5 28 a0 55 bd 2d fe d7 3c 0a ec b9 3c
       -1.3637756e-06 -0.05215469 0.026366318 0.02269556
000090 cd ea ca bd b9 54 3b bd 93 7b 6d 3d 4c 36 9d 3d
       -0.09908066 -0.045735095 0.057979178 0.07676372
0000a0 99 ef eb bc dd 03 10 3d 4c 41 92 3d 36 48 cf bd
       -0.028800773 0.035159934 0.07141361 -0.10121195
0000b0 79 fa 1f 3d a3 05 41 bc 77 75 01 be ba cd 1b 3d
       0.03905723 -0.011781129 -0.12642466 0.038037993
0000c0 95 f5 ee bb b2 71 2c bd df eb 35 bd 71 96 c5 bd
       -0.0072924593 -0.042100616 -0.044414397 -0.09647835
0000d0 b4 de 6d 3c ac be 9f 3d 66 db 77 3d 27 e7 96 3d
       0.014518429 0.0780004 0.06051197 0.073683076
0000e0 88 48 94 bd 95 2a 92 bd 2e 1f 94 bb 38 4d 93 3d
       -0.07240397 -0.07137028 -0.0045203185 0.07192463
0000f0 fe c0 92 3d e1 bb 23 3d 40 87 4d bc 42 52 eb 3b
       0.071657166 0.039974097 -0.012544453 0.0071814368

TCNnetwork.2.conv1.parametrizations.weight.original0 f4 [64, 1, 1]
000000 d6 b1 16 3f 65 47 11 3f 78 37 1e 3f f7 69 1d 3f
       0.58865106 0.56749564 0.6180339 0.61489815
000010 be 22 21 3f 74 cd 14 3f 0e 3e 1f 3f 56 ba 14 3f
       0.6294364 0.58125997 0.6220406 0.58096826
000020 0e c9 16 3f 2d 1d 10 3f 30 66 1a 3f b9 da 19 3f
       0.58900535 0.5629452 0.60312176 0.6009937
000030 a4 49 18 3f 1a 47 14 3f 07 15 0d 3f 25 26 0c 3f
       0.59487367 0.5792099 0.5511021 0.54745704
000040 7e a1 16 3f 96 27 0e 3f 15 4d 0c 3f e0 d2 20 3f
       0.5884017 0.55529153 0.5480512 0.6282177
000050 e4 7f 0d 3f 36 02 15 3f b8 e9 1f 3f bd 84 18 3f
       0.5527327 0.582065 0.62466 0.5957754
000060 ab 7c 14 3f 11 0a 19 3f b4 46 1a 3f a6 b7 0f 3f
       0.5800273 0.59780985 0.60264134 0.561396
000070 99 30 11 3f 0a bb 06 3f 7d 47 0e 3f 9b 9e 13 3f
       0.5671478 0.5262915 0.5557783 0.5766389
000080 1a 53 12 3f 6c d7 0c 3f 5f e1 09 3f 0e 50 12 3f
       0.5715805 0.5501621 0.53859514 0.57153404
000090 85 64 17 3f b5 00 07 3f 3c a2 1d 3f d1 ad 21 3f
       0.59137756 0.52735454 0.61575675 0.6315585
0000a0 cc 8a 25 3f f4 90 1a 3f 7a de 1c 3f 8f ce 07 3f
       0.6466491 0.6037743 0.6127697 0.5304956
0000b0 81 77 13 3f 46 99 10 3f 5d 97 13 3f f4 48 13 3f
       0.57604223 0.56483877 0.5765284 0.5753319
0000c0 c9 3f 17 3f 8f 70 10 3f c1 56 12 3f d8 b6 17 3f
       0.59081703 0.5642175 0.57163626 0.5926337
0000d0 b6 94 16 3f 85 e6 1f 3f 33 72 17 3f 3f 19 17 3f
       0.58820665 0.6246112 0.5915863 0.590229
0000e0 51 6e 15 3f 7c b5 1b 3f e1 86 1b 3f 2e a9 1c 3f
       0.58371454 0.608238 0.60752684 0.6119565
0000f0 6d 30 15 3f 88 b4 28 3f 6c 40 0f 3f 6a c3 18 3f
       0.58277017 0.6590047 0.55957675 0.5967318
